lsy_drone_racing/control/ppo_drone_racing_80M.ckpt (torch, 77927 bytes, 12 tensors)

actor_logstd f4 [1, 4]
00000000: 90c8 7cc0 089c 76c0 d0bc 4fc0 9246 51c0
-3.9497414 -3.8532734 -3.2458992 -3.2699323

critic.0.weight f4 [64, 73]
00000000: af6d 31be c898 b23d 6b79 093e 7dc6 aabd
00000010: f328 1d3e 72e8 0ebe 91f9 883e c166 ebbe
00000020: 3ac5 373e 4e65 d63c e768 743d 97ed de3d
00000030: c105 52bc 8346 8c3f c098 fe3d 33b3 8a3e
00000040: 82bf 18c0 808b d9bd 9501 643f 3435 07bf
00000050: 8259 563c 0ab5 0c3f b78b 40be 15d3 1a3e
00000060: 52b6 dd3e 3b37 123c 0ac0 103d 9ac6 963e
00000070: 072f bdbd 40f2 52bd ab75 343d 3822 3abe
00000080: 4407 b8bd fe3e bebe 3e49 3cbe 5107 963d
00000090: 3bb6 8ebe 6eeb 94be 7ed9 463a a0d5 1cbe
000000a0: 99d6 5fbf 9893 37be fd3a 163e 1c5b ce3d
000000b0: 6b41 27bd 0caa f7bc a0e0 bebd 13c8 033e
000000c0: 355a a3be 011c ce3e e9d2 edbe 9510 f2bc
000000d0: 8144 7dbe f2c4 99bd c62f 1bbe 2a75 d23d
000000e0: b86c c93c 61fc 32bd c33d db3c 20cb d13c
000000f0: 826a 513e aa35 72be cab7 bf3e 7b4a e1be
00000100: 5ce4 26bb e33f 8ebd 2298 063d 850c 63bd
00000110: 9649 85bd 8c90 4c3d 9857 103e 1b17 1a3e
00000120: 7035 f4bd 0fd8 eabd b819 d83b 54eb 0c3d
00000130: 6a01 013e b088 953c 7609 5c3d 1d2a e83b
00000140: 092d 8cbd 3ac2 08be 28a0 c83e abf2 4d3c
00000150: 6b9b fe3a 017b d13b 2013 1f3f e20c 1c3e
00000160: be7a e7be 3704 1a3f 99be 283e fa4b f7bc
00000170: 692a a03e cf34 293e 3021 7b3d f1ab edbc
00000180: f318 3e3d 1faa b73e ed1c 343d b6b5 153d
00000190: 5dac c53e 4614 f8be ceb6 c8bd ced7 f13e
000001a0: 7dca 47bf c535 a2bc 0100 c73e 905c 53bf
000001b0: 2bbb 6dbd a80d 253e 7a20 c8be 8bf9 0d3e
000001c0: 3d6a 8bbd 79de ac3f 4740 0f3d c067 0dbf
000001d0: e2c8 d4bc 3dd4 87bd e986 913d 1a2f 69bd
000001e0: 4546 5c3d 7a28 90bc ee5b 2f3d 45d9 a3bd
000001f0: ab90 f83c 8032 9abe 05d4 1ebc b77d 21bd
00000200: c587 b4bc bd8d b0bd 3d3b 823d cbdd 313e
00000210: 93f3 e1bb 7dcb 653d e528 11bd 00fc 5abd
00000220: 0e1b 8fbc 689b a4bd c1a7 89bd 4a31 4d3a
00000230: 123e 363d a02b 7ebc f1d3 cd3d d790 0b3e
00000240: b4a1 213d 0f66 da3d 4241 92bc d8a5 163e
00000250: 4e0b 89bf 7339 babd 19d6 10be c0ab 47bd
00000260: b2b0 07bf b815 e8bd 5181 973e 5124 423f
00000270: 950e fd3c 9c14 cc3c c640 cf3d 42cc ef3d
00000280: 3300 473d f1a0 34bd d0ea c13d 0836 a9bd
00000290: 2c30 183e aeb1 42bc 5d57 05be f489 a93e
000002a0: fb4a fbbd 4b00 47bd 0ee0 263e 0543 ca3d
000002b0: dadc 66bc 2009 a83e 5060 a3bd 2646 8b3c
000002c0: 2574 df3d efa3 103c 1d7b 0fbc 3b9b 1f3e
000002d0: 5b46 c4bd 20fa 913c 8a4d 623d 7679 9f3d
000002e0: 29db e23d d687 0b3c 4ccf b83d 5397 9b3d
000002f0: 8b16 d2bd e23e 38be e60e 1a3d ee83 66bf
00000300: ac3f 8bbc e62e 78be c724 2a3e 3a31 d2be
00000310: b5ce 4fbd a146 aabb ff07 eabe 733e 00bd
00000320: 609f c6bc 2dfa 0bbd 92c3 89bd 1aef 2a3e
00000330: 0e26 80bf 498f 90bd 2b04 60be 694d ee3c
00000340: dafe 0dbf 7796 223d 075a 46be 5e91 15bf
00000350: ff7e ae3c 1623 0dbd a436 d7bc c4c5 16bc
00000360: 9930 f1ba a710 cebd 5ee6 01be 8fed 65bd
00000370: 9094 f2bc 0781 49bc 0db2 4b3d b7bb 0a3f
00000380: da67 473e 49f0 d53d 6247 7a3e bb76 683e
00000390: 61bf 3fbc fe2c 97bc a640 193d f7bf 4d3d
000003a0: 2cba c53f 6112 353f fd5b a3bf f03a e3be
000003b0: 1195 b9be 428f 6fbf 1a4c 303d afcb 35be
000003c0: 5335 96bf ff2f d73e 1b68 473d f157 97bf
000003d0: eeab b13e 1b0c 473e a83c 69bf ea10 f03d
000003e0: ad86 0b3e 586b 96be 319b 81be 470f c8bd
000003f0: 44a3 2c3f c69d d1be 3b97 b9be 54de cb3f
-0.17326997 0.08720547 0.13425224 -0.0833864 0.15347652 -0.13955858 0.26752904 -0.45976833
0.1794633 0.026171353 0.059670355 0.108851604 -0.012818755 1.0959018 0.124314785 0.27089843
-2.3866887 -0.10622311 0.89064914 -0.52815557 0.013082864 0.54963744 -0.18803297 0.15119584
0.43303162 0.008924301 0.035339393 0.29448396 -0.092374854 -0.05150056 0.04405753 -0.18177116
-0.08985761 -0.37157434 -0.18387315 0.07325614 -0.27873406 -0.2908587 0.00075855094 -0.15315866
-0.87436825 -0.17927396 0.1467094 0.100759715 -0.04083387 -0.030232452 -0.093201876 0.12869291
-0.3190476 0.4025574 -0.46449974 -0.029548923 -0.24733163 -0.075082675 -0.15154943 0.102762535
0.024587974 -0.04369772 0.026762849 0.025609553 0.20450786 -0.23653284 0.37444907 -0.44002137
-0.0025465703 -0.06945779 0.03285993 -0.05543186 -0.06508176 0.04994254 0.14095914 0.15047877
-0.11924255 -0.11466991 0.006594863 0.034404114 0.12598196 0.018253654 0.05371996 0.0070850984
-0.06844527 -0.13355342 0.3918469 0.012570064 0.001942498 0.006392837 0.6213856 0.1523929
-0.45210832 0.6016268 0.16478957 -0.030187596 0.31282356 0.16524051 0.061310947 -0.029012652
0.046410512 0.3587198 0.0439729 0.036550246 0.38608065 -0.48452967 -0.09800492 0.47234958
-0.7804335 -0.01980103 0.3886719 -0.82563114 -0.058039825 0.1611849 -0.39087278 0.13864724
-0.06807373 1.3505393 0.03497341 -0.55236435 -0.025974695 -0.06632278 0.0710581 -0.056929685
0.05377795 -0.017597426 0.04281228 -0.08000425 0.03034242 -0.30116653 -0.009694104 -0.03942653
-0.022037396 -0.086207844 0.06358955 0.17369764 -0.0068954914 0.056102265 -0.03543939 -0.053462982
-0.017468955 -0.08037454 -0.0672145 0.0007827474 0.04449279 -0.015513331 0.1005019 0.13629471
0.039460853 0.106639974 -0.017853383 0.14711702 -1.0706575 -0.09092989 -0.14144172 -0.048747778
-0.5300399 -0.113322675 0.29590848 0.75836664 0.030890742 0.024912171 0.101197764 0.11708881
0.048584174 -0.0440988 0.09468615 -0.08262259 0.14862126 -0.011883182 -0.13021608 0.33113062
-0.12270161 -0.048584264 0.16296408 0.09876064 -0.014090741 0.32819462 -0.079773545 0.017001223
0.10910825 0.008828147 -0.00875738 0.1558656 -0.09583732 0.017819464 0.05524973 0.07786839
0.11076958 0.0085162725 0.09023914 0.07597222 -0.10258206 -0.17992738 0.037611865 -0.9004506
-0.016998135 -0.2423664 0.16615592 -0.41053182 -0.05073424 -0.005196408 -0.45709226 -0.031309556
-0.024245918 -0.034174133 -0.06726755 0.16692773 -1.0011613 -0.070585795 -0.2187659 0.029089646
-0.55467 0.039694276 -0.1937028 -0.5842494 0.02130079 -0.03445729 -0.026271172 -0.009202424
-0.0018401324 -0.1006177 -0.12685534 -0.056134757 -0.029611856 -0.012298829 0.04973035 0.5419268
0.1947321 0.104462214 0.24441293 0.22701542 -0.011703343 -0.018454071 0.03741517 0.0502319
1.544744 0.7073117 -1.2762448 -0.44380903 -0.3624654 -0.9357797 0.043041326 -0.1775348
-1.1735023 0.42028806 0.048683267 -1.1823713 0.34701484 0.19438212 -0.9110818 0.11721976
0.13625593 -0.29378772 -0.25313714 -0.09768539 0.67436624 -0.40940684 -0.36248192 1.5927224

critic.0.bias f4 [64]
00000000: 1dc1 4f3e 9194 64bc 9d5f 5cbe 9a87 343e
00000010: 20bc c53d 79ca 96be 79e0 18be 04b6 ecbd
00000020: 2651 4d3e 20fa 03be fd09 a53b 5c2c 14be
00000030: 3c3f d73d 1dfd e53d c0bb 363e afa6 e93d
00000040: 996c cf3d 19fc f8bd aa08 dd39 8234 533e
00000050: a02c f03d 2b45 2cbe 07e4 783d 4395 2f3e
00000060: 72bd a13e d7fe bd3e 6cd5 693e c7fd 0cbe
00000070: 2761 d93d 7acc 723c 72e6 71bc 74f7 17be
00000080: e7d3 033e 3710 543e 32dd 523d 4a02 053e
00000090: 8f5d 503e 606f ce3d 4182 5fbe 692a 0f3d
000000a0: 3444 a2bd dbaf 90bd 7f49 2d3e 4583 2ebe
000000b0: 037f b2bd c9a9 35be 31c3 153e d2da 9ebc
000000c0: a923 34be cbbd 033b 67e3 acbd 3402 76bd
000000d0: e82b 413e e1d1 4fbe 28c1 0ebd 9b99 263e
000000e0: bad9 b63d df8f 20be b427 443e 555c 133d
000000f0: daa9 f7bd dda7 8c3d 1ece 663a 9181 aabe
0.2028851 -0.013951437 -0.21520849 0.17629853 0.096550226 -0.2945135 -0.1492938 -0.11558154
0.20050487 -0.12888384 0.005036591 -0.14470047 0.10510108 0.11229918 0.17845058 0.114087455
0.10128135 -0.12157459 0.0004215886 0.20625499 0.117272615 -0.1682326 0.06076434 0.17146783
0.31589848 0.3710849 0.2283532 -0.13768683 0.106142335 0.014819259 -0.014764415 -0.1484049
0.12873803 0.2070931 0.05148048 0.12989154 0.2034819 0.10079837 -0.21827032 0.034952555
-0.07923165 -0.07064792 0.16922568 -0.17042263 -0.08715632 -0.17740549 0.14625241 -0.019391451
-0.17591728 0.002010214 -0.08441811 -0.060060695 0.18864405 -0.20294906 -0.034852177 0.16269533
0.08928247 -0.15679882 0.1915577 0.035976727 -0.120929435 0.06867955 0.00088045176 -0.33301976

critic.2.weight f4 [64, 64]
00000000: 82eb e03d 9d0b d5be 992e 5a3e ad75 afbc
00000010: 7b9e 3d3e 60d5 1fbc 327b a7bd 3a2a c0ba
00000020: 6a6a 23bf b9a1 573d dff0 c23d 83aa 623e
00000030: 7fbc db3a 3437 d93e 595b c63d e077 b33d
00000040: d7f9 42bd 55dd 94be 802a 5bbc 863d 12bf
00000050: d113 373e 7100 b03d 91af b63e dfd2 aa3e
00000060: 6cc7 3f3d e07b 6bbd 92f8 303e 826d 023f
00000070: acfd 98bd 86ec 8f3d 9320 28bf 0188 81bd
00000080: 765f 89bf 9d8c aa3e ec8e f2be 37a4 e7be
00000090: a258 0e3f 3519 6bbe 88d0 a2bd ae2d e83c
000000a0: 9881 fbbc 5927 c7bc b8f7 abbd cbc7 08be
000000b0: 4972 e93d 7503 753f 13b8 4a3e d1bf 86bc
000000c0: 69df 06bc e78a f53e b058 c5bd 03ff 3a3e
000000d0: f682 363e a1b9 95be d19a fbbe b7ef 743e
000000e0: 94bc 533e 1548 253e 9e93 1a3d ba90 80be
000000f0: db53 383e b9c9 013f 5065 283e 7226 763e
00000100: 3480 353d 9273 9abe 56c7 78be 1850 a7be
00000110: fb1c 853d a0d0 053e 567f 94bd 86e9 eabe
00000120: f20f 8ebd 19a1 3e3e dc8e 843e 1ef1 5a3e
00000130: f947 4fbe 2267 cb3e dbf0 083e 6ef6 1a3d
00000140: 4dbc 813e f09e b33e fe0c b33d da31 213d
00000150: 2d0b 0d3f 4f44 1d3e ae5f c6bb 2f6b f73d
00000160: d2f6 5cbc 0085 303e b8a9 79be daca 003f
00000170: d6c0 a5be 33ab 74be 323d 14bf 3d2e 133e
00000180: 9a02 a4bd 1986 723e 5f94 8ebd 6527 afbd
00000190: 6b9e 0a3e e5f3 83bd b659 cfbc a596 7f3e
000001a0: f83c 653e 4cf4 99bd ebf4 8fbd 097e d6be
000001b0: 0ec3 2c3e 6554 b0be 0d41 313e c414 9abd
000001c0: acdb dabb e6a4 e43c 80b5 de3c c015 2bbe
000001d0: e80d 19bd 1672 d4bd c993 cdbe ac5e 383e
000001e0: 6475 643e 317f 043d 8155 33be 8a3b c63d
000001f0: c43d 8a3c f051 0fbe 38d3 a4bb 33d5 86be
00000200: 7ae3 86be a056 343e 1135 c53e 180f 383e
00000210: 618b bd3d 320e a13c cfde 56be 1d90 a2be
00000220: bf6d c03d 9815 07bd 9dd2 353e 2e52 143e
00000230: 47d2 02bf 28fd 4f3e e156 a9bd a841 dc3d
00000240: 7b7c b2be b0e1 ed3c adb5 47bf d870 963e
00000250: 557b febe 1459 acbe a55e c53d 2367 a2be
00000260: c5ca c33e a098 83be 667e 01bc 92b5 34be
00000270: 4c09 a53d 29dc c7bd 20f8 bf3d de90 ff3e
00000280: 5ca9 1a3e 39fe e93c aa44 52be 6064 10bf
00000290: 3547 743e 8ce4 2fbe 1136 9abe dee3 1d3f
000002a0: f317 d83e 143b 5c3e ad96 f83d 877f 0c3e
000002b0: 64f9 963e 130e d8be ac28 203f d207 a3be
000002c0: 9afb 63be 1125 c3bd 1942 e2bd 46ed 44bd
000002d0: 184f 933e a5d1 8bbc fc26 a03d 4413 6b3e
000002e0: 22ca 85be 9396 9c3e 6778 1e3e f240 eebc
000002f0: 689c d53c 6093 8a3e 785d a83e c482 213e
00000300: 5c7a 48be ea5b 10be 9d46 8fbe a4d0 2ebd
00000310: 3bb3 563e 879b ebbd fef5 25bf b7e3 1dbf
00000320: ec1d d13e e16f fd3d 8951 f5bd a45c 783e
00000330: 6674 0bbe 5e08 023f 8d97 d7bc 4662 89bd
00000340: f4e3 0cbe a0a4 adbd 918f 0f3d 02e7 9ebe
00000350: 1ca9 703d 2a33 f53c 2c38 67be 1db8 9fbe
00000360: 06cf 133e 1b9e 863d 7d7c 15be f0c9 21be
00000370: 0aee afbe b97e 86bd d2cd ecbe 4dbb 9a3c
00000380: 862b 5ebf d464 7f3e f28f 50bd 1000 2bbe
00000390: b10c 2bbf 6e22 1cbc f88b 883d c6c5 a13d
000003a0: 4b93 0dbe d49d 4fbd cbd1 053e 96d6 a93d
000003b0: 55eb 483c 67de 89bf 39c2 acbc cea9 c33d
000003c0: 0c9d aebd a46a 3a3f 1ebd 313d 0afa e3bd
000003d0: 162d 15bd 40fe 8c3d 47c1 40bf 3457 463d
000003e0: acc7 ee3d a7a6 38be bbfc 44bb 167d 52be
000003f0: 874b e23d d682 dd3d cc4f 723d 15ac 343e
0.109824196 -0.41610423 0.21306838 -0.021418417 0.18517487 -0.009755462 -0.081777945 -0.0014661022
-0.6383425 0.052644465 0.09518599 0.22135358 0.001676455 0.4242493 0.09685392 0.08763099
-0.047601547 -0.29075113 -0.013376832 -0.5712513 0.17878653 0.08593834 0.35680822 0.33364007
0.046821043 -0.057491183 0.17282322 0.50948346 -0.07470259 0.07027535 -0.65674704 -0.06324769
-1.0732257 0.33310404 -0.47374666 -0.45242473 0.5560399 -0.22958834 -0.079499304 0.028342094
-0.030701444 -0.024310755 -0.08396858 -0.13357465 0.11398751 0.957084 0.19796781 -0.016448887
-0.008231976 0.47957537 -0.096360564 0.18261342 0.17823395 -0.29243186 -0.49141553 0.23919569
0.20677406 0.16140778 0.037738435 -0.25110418 0.18000738 0.5069843 0.16444898 0.24038103
0.044311717 -0.30166298 -0.2429479 -0.32678294 0.06499668 0.13067865 -0.0725085 -0.4588129
-0.06936635 0.18616141 0.25890243 0.21381041 -0.20242299 0.39727122 0.13373129 0.03783267
0.25338975 0.35082197 0.087427124 0.039354183 0.5509518 0.15358089 -0.0060538864 0.120809905
-0.013486581 0.17238235 -0.24381149 0.50309527 -0.32373685 -0.23893432 -0.57905877 0.14373107
-0.08008309 0.23683967 -0.06961893 -0.08552436 0.13536994 -0.064430036 -0.025311332 0.2495981
0.22386539 -0.07517299 -0.07029136 -0.41893032 0.16871282 -0.34439388 0.17309971 -0.07523492
-0.006679019 0.027910661 0.027186155 -0.16707516 -0.037366778 -0.10373323 -0.40151814 0.18004864
0.22310406 0.03234786 -0.17513086 0.09679325 0.016875155 -0.139961 -0.005030062 -0.26334533
-0.26345426 0.1761117 0.3851705 0.17974508 0.092551 0.01966009 -0.20983432 -0.31750575
0.093959324 -0.032979578 0.17756124 0.14484474 -0.5110211 0.20311415 -0.08268524 0.107547104
-0.34860596 0.02903828 -0.7801159 0.29382968 -0.4970347 -0.3366171 0.09637193 -0.31719312
0.38240638 -0.2570238 -0.007903671 -0.17647389 0.08058414 -0.09758789 0.09373498 0.49915212
0.15103668 0.028563606 -0.20534006 -0.5640316 0.23855288 -0.17177027 -0.30119374 0.6167582
0.42205772 0.21506912 0.12138114 0.13720523 0.29487145 -0.42198238 0.6256206 -0.31841904
-0.22263947 -0.09528554 -0.110477634 -0.048077844 0.2877128 -0.01706774 0.07819936 0.22956568
-0.26130778 0.3058363 0.15475617 -0.029083703 0.026075557 0.27065563 0.3288381 0.1577254
-0.19577926 -0.14097562 -0.2798356 -0.042679444 0.20966808 -0.11504274 -0.6482848 -0.6167559
0.4084314 0.12374855 -0.11978442 0.2425409 -0.13618621 0.5079402 -0.026317382 -0.06708197
-0.13758832 -0.08478665 0.035049025 -0.3103562 0.058755025 0.029931623 -0.22580022 -0.31195155
0.14434442 0.06573125 -0.1459827 -0.1579969 -0.34361297 -0.06567139 -0.46250778 0.01888814
-0.8678516 0.24940807 -0.050918527 -0.16699243 -0.6681624 -0.009529693 0.06667322 0.078990504
-0.13825719 -0.050687626 0.13068311 0.08292882 0.012263139 -1.0770997 -0.021088706 0.09553872
-0.08526048 0.7281897 0.043393247 -0.111316755 -0.03641995 0.06884432 -0.7529492 0.048423007
0.11659178 -0.18032323 -0.0030057866 -0.20555529 0.11049562 0.108159706 0.05915813 0.17643769

critic.2.bias f4 [64]
00000000: af7c ea3c 9998 583e 420f 99be 77cc 3d3e
00000010: 5dd3 043e 0cef 683d 7e6d 893e d5e4 893c
00000020: 15e7 433e 2106 62bc ca19 3dbe 6a0e e6bb
00000030: bac5 90bd f299 6ebd b97d e4bc 7e48 4b3e
00000040: 47a7 a8bd a323 513e 611e e2bd e297 1b3e
00000050: 3c4f 3d3d f3f0 05bd a2b0 c8bd 8cab 9bbe
00000060: f615 11be dd0b 1ebe 43d6 ed3d c73f e43c
00000070: b46a 25bd 1498 30bd 57e7 4dbb e8be 2f3e
00000080: 7e7b ef3d e0bf 483d 32a6 61bd 549d 483c
00000090: a378 8cba c0a4 1c3e f605 203d f8d7 cebe
000000a0: 39a5 7dbd 2e8b 4c3e b74e 1e3d beab afbd
000000b0: c83e 883c b7db 1c3d 4291 3e3b 9e58 193e
000000c0: b54d 163f 71c0 e33d 4c94 fc3d 9f82 d23d
000000d0: f7bd 30be 6b7d 0ebe cf4b 1a3d 4d7f 413e
000000e0: 7e37 363c 3d96 8e3c 450d ffbd 3dc5 913e
000000f0: 38b0 55bc 51ae 0ebd abec 593f 090e d13d
0.028623907 0.21151961 -0.29894453 0.18535028 0.12971254 0.056868598 0.26841348 0.016832748
0.1913112 -0.013795407 -0.18466869 -0.0070207613 -0.07068963 -0.058252282 -0.02789198 0.19851872
-0.082350306 0.2042375 -0.110409506 0.15194657 0.046218142 -0.03270049 -0.09799315 -0.30404317
-0.14168534 -0.15434213 0.11613133 0.027862443 -0.040384963 -0.043113783 -0.0031418407 0.17162669
0.11693476 0.04901111 -0.055090137 0.012244541 -0.0010717105 0.15297222 0.039068185 -0.40399146
-0.061925147 0.19974968 0.038649287 -0.08577679 0.016631499 0.038295474 0.002907828 0.14975211
0.5871232 0.1112069 0.12332973 0.1027882 -0.17259966 -0.1391503 0.037669953 0.18896218
0.011121629 0.017405624 -0.12453703 0.28470793 -0.013042502 -0.03483421 0.8512675 0.10207755

critic.4.weight f4 [1, 64]
00000000: 2f7c ca3f 463a f6be a0cd 583f 27b8 91bf
00000010: eb00 e7be df36 4cbf ae3f 1cc0 79b6 5040
00000020: eaee 0e40 2933 96bf 777f 873f 30eb 88bf
00000030: 2f0d 013f 55b7 df3f 4e2e 4e3f 48d2 3dbf
00000040: 9392 573f 65a6 d4be 625f 1940 ffbd 4bbf
00000050: 660c 0dbf b9f9 863f 0af7 4840 915c 793f
00000060: fb10 053f 2c90 193f 4844 973f 3aca 81bf
00000070: be64 9b3f 3741 3cbf 8f47 973f 3e52 e5be
00000080: b1c5 c23f 7033 51bf 489b 0b3f 20f1 79bf
00000090: cbcb e5bf d015 95bf ca9e af3f b401 22c0
000000a0: 3342 773f ba08 a3be a408 8fbf e7e6 8dbf
000000b0: 5641 97bf 8068 a8bf a593 b4bf bace 8dbf
000000c0: b0cf 91bf 844b d2be 94fb 90bf ef6b 64bf
000000d0: 7fe6 8e3f cda3 4d3f ad12 90bf f058 14bf
000000e0: e4a9 af3f 6e82 8c3f 447b eb3f 7550 7ebf
000000f0: 14a8 a23f abec acbf dbc1 bebf 12bd 47bf
1.5819148 -0.48091334 0.8468876 -1.1384324 -0.45117888 -0.79771227 -2.4413867 3.2611372
2.2333322 -1.1734363 1.0585774 -1.0696774 0.5041074 1.7477823 0.80539405 -0.7414899
0.8420803 -0.415332 2.3964467 -0.79586786 -0.55097044 1.0544959 3.140078 0.9740687
0.51979035 0.59985614 1.1817713 -1.013984 1.2140119 -0.7353701 1.1818713 -0.44789308
1.5216581 -0.8171911 0.54533815 -0.9763355 -1.7952818 -1.1647282 1.3720334 -2.531354
0.96585387 -0.31842595 -1.1174512 -1.1086091 -1.1816814 -1.3156891 -1.4107558 -1.1078713
-1.1391506 -0.4107324 -1.1326776 -0.89227194 1.1164092 0.80328065 -1.1255699 -0.5794821
1.3723722 1.0977304 1.8396993 -0.9934152 1.2707543 -1.3509725 -1.490291 -0.78022873

actor_mean.0.weight f4 [64, 73]
00000000: 58c9 5dbd dffa ac3b 1761 40bd 7a8d 163d
00000010: 6bb3 523e 5132 1dbe 52ea 963c acb0 ec3d
00000020: c902 acbb 558d b63d 6a6d 73bc 45e6 0d3d
00000030: 27ca 093e e848 a33e b488 863e a947 863a
00000040: c4d2 da3d 1ef6 09be ee88 89be 42db a23d
00000050: efd2 f23b 74ce 0c39 de6d 61bd 5173 ffbd
00000060: 1793 b1bd ffde 0dbd 78f6 74be 3f1e 73bd
00000070: 5908 cabc 3b0b 4bbe 4a53 35be 8353 9d3c
00000080: 238e 2fbb 8b8c 843d e4e9 b0bd f07e 14be
00000090: 2845 d3bd 4d78 b7bc e008 f7bb 1d0b a7bb
000000a0: 56e8 03bd 6120 8c3d a74f cabd 4b88 8dbd
000000b0: 0921 6c3b 36b6 5ebb 6660 313e b6e1 6e3e
000000c0: 7f71 87be 546e 0d3e 7b5d 12be 8f30 fb3c
000000d0: be76 0d3e dfef 053d 2feb a7bd c129 edbd
000000e0: e6f6 ab3d abaa 343c 11ed bd3d e9e3 823d
000000f0: f1cf 9b3e 4b5b 83be cb55 063e d1e4 183e
00000100: 2de7 1a3d f12b d0bc b01c a13b 5bf0 92bc
00000110: 4c55 80bd 8e3a 223d da69 d03d e846 963e
00000120: 3ea2 cbbe 7b58 cfbc 76e1 c8bc 4f0d 1e3c
00000130: d04c 91bd eaab 2dbe dad3 e7bc 8057 83bd
00000140: 531f 5e3d 5dc6 ecbd 55f3 e23b 4198 f6bc
00000150: fda5 eabd 9ebc 8f3d 7a74 fb3d e102 363e
00000160: 0741 1bbd e287 abbd 46e0 c73e 334d 14be
00000170: 3a79 8dbe 0ec3 d83e 7925 d7bd d4d6 f4bd
00000180: d6ca f43e 3bd1 90be bca3 bdbd eb2f 793e
00000190: f351 bcbd c29e 7bbd 2399 573d 8a91 afbd
000001a0: 483e cf3d f1dc 8339 85ef 4fbd 643f 0b3e
000001b0: 3c79 17be 8c2e 7bbb 663b 21bd 8f19 c2bd
000001c0: fdb0 c33c 89e0 c3bb 8c6e 40bd 2390 3cbd
000001d0: ac6f ce3d 9004 05be 54cd c23d ec1a a9bd
000001e0: a854 62bd 3fca 1b3d b2a4 b7bd 426e 903d
000001f0: 8efb 3ebd 19b8 313e f123 2b3d 0a0d 0f3e
00000200: 6ebe 933b f004 bb3c e4a4 af3d 6265 b93c
00000210: 4ef0 4dbd 4db9 d83c ee2a 6ebd 9dcb 243e
00000220: 2ac5 ecbc d8e0 75bd 2348 d33d b396 913d
00000230: 9252 95bc e94b a7bc f8ae 15be 22f1 37bc
00000240: f0a4 b2bd 8267 3cbe 7917 24bd 75ce ba3d
00000250: 2336 603d e656 dc3c fac1 123e edc9 8a3a
00000260: 6303 21be 95df 8cbd 3ad4 14be 809f 313e
00000270: 82c7 983c fb73 8f3d 95e8 35bd 1fbe 80bd
00000280: f86c 03be 7de5 91b8 38b0 c2bd 325c bb3d
00000290: ddc6 3cbe 4f33 8d3d 4913 8a3e 24e5 9abe
000002a0: e327 49bc 4188 9d3d 2c51 aebe 95b3 bc3c
000002b0: f9ee 143e 15f3 7bbe 45c7 b7bd ae95 0a3e
000002c0: a688 0dbe a10b 4b3e 3ace 4e3d 9e56 4bbe
000002d0: dc86 da3d 2e5c 743d 0a17 61be beaa fc3b
000002e0: dbd1 013c 851f 133b 3aea bebd 09e2 9e3d
000002f0: 4cc7 c0bd da5e cebc 11fc 96bd 78b5 6cbd
00000300: cffb e03c c95e b6bd b3dc 89bd 4ccd 1abe
00000310: a983 36bc 71e5 4dbd 68cb 093e f116 63bd
00000320: 3f74 2fbd f84e 89bd 9355 3b3b c50c 2bbd
00000330: ff3a bfbd 3123 3c3d c8e1 69bc b3af 193d
00000340: 8399 65bd d8b6 1a3d da1c abbd eae1 4a3e
00000350: db3e d13d d300 003d 0c49 b23d 813e 8ebe
00000360: 8adb 0b3e b2cd a7be e1dc 87bd 2480 a4bd
00000370: b011 34be b27f 183e e5ab e6bd 53c8 06be
00000380: 227c 51bd 2de2 a9bc 790d 8cbd ff83 1a3d
00000390: aef8 1e3e 2d63 1b3d 8ac8 31bd 391e 2c3c
000003a0: edc9 68bd 49b7 3b3d f780 51be 39a9 913d
000003b0: e25f 74bd fe16 e8bd 625c 043e 1437 af3d
000003c0: 459d 38be 1724 243e ff27 33bc a181 3fbe
000003d0: 35e8 c53d de0a 35bd 982c 0ebe 1be9 d73d
000003e0: 5b89 813d 6602 c53c fed5 cd3c 1c22 c0bd
000003f0: 06eb 143b 04a9 0b3d 64cb 60bd eec9 413d
-0.054147094 0.0052789296 -0.046967592 0.036756016 0.20576255 -0.15351225 0.01842228 0.11557135
-0.0052493555 0.08913676 -0.014857629 0.03464343 0.13456021 0.3189156 0.2627617 0.0010244745
0.106847316 -0.13472793 -0.26862282 0.07951976 0.007410399 0.0001342835 -0.05503642 -0.12473167
-0.08670633 -0.034636494 -0.23922145 -0.059355017 -0.024662184 -0.19828503 -0.17707554 0.01920486
-0.00267876 0.06472119 -0.08638361 -0.14501548 -0.10315925 -0.022396231 -0.0075389 -0.0050977604
-0.032203995 0.06842113 -0.09878474 -0.069107614 0.0036030433 -0.0033983118 0.1732193 0.2332829
-0.26453778 0.13811618 -0.14293472 0.030662803 0.13814828 0.032699462 -0.081991546 -0.115802296
0.083967015 0.011027019 0.092737325 0.06391127 0.30432084 -0.25655589 0.13118665 0.14931037
0.037818123 -0.025411578 0.00491675 -0.017936876 -0.06266269 0.039606623 0.101764396 0.29350972
-0.39772218 -0.025310745 -0.02452157 0.009646728 -0.07094729 -0.16960111 -0.02829926 -0.06413174
0.05422909 -0.11561272 0.00692598 -0.030101897 -0.11457441 0.07018398 0.122780755 0.17774536
-0.03790381 -0.08375527 0.39038295 -0.14482574 -0.2763155 0.42336315 -0.10505194 -0.11955038
0.47811002 -0.2828463 -0.092597455 0.24334686 -0.09195318 -0.0614307 0.052636277 -0.08572681
0.10119301 0.0002515088 -0.050765533 0.135984 -0.14792341 -0.0038327305 -0.039363287 -0.09477531
0.023888106 -0.0059776944 -0.046980426 -0.046035897 0.100798935 -0.12990022 0.095118195 -0.08257088
-0.055256516 0.038034674 -0.0896696 0.0705228 -0.04662662 0.17355384 0.041782323 0.13969818
0.004508785 0.022829503 0.08576372 0.02263135 -0.050278 0.026455546 -0.05814641 0.16093297
-0.028902609 -0.06002888 0.10316493 0.07108822 -0.01822785 -0.020421939 -0.14617527 -0.011226924
-0.087228656 -0.1839886 -0.040061448 0.0912141 0.05473913 0.026896905 0.14331809 0.0010588743
-0.15723948 -0.068785824 -0.14534083 0.17346 0.01864982 0.070045434 -0.04441126 -0.06286263
-0.12834537 -6.956884e-05 -0.09506267 0.09148444 -0.18435235 0.06894552 0.26967838 -0.30252945
-0.012277576 0.07692004 -0.34046304 0.02303485 0.14544286 -0.24604447 -0.089735545 0.13533661
-0.13821658 0.19828655 0.05048964 -0.1985726 0.10670254 0.059658222 -0.21981445 0.0077107837
0.007923569 0.0022449207 -0.09322019 0.077579565 -0.09413013 -0.025191713 -0.073722966 -0.05779025
0.027463822 -0.089047976 -0.06731548 -0.15117377 -0.011139789 -0.05026764 0.134565 -0.0554418
-0.04283547 -0.06704515 0.0028584942 -0.041760225 -0.093374245 0.045932 -0.014275022 0.037521075
-0.056054603 0.03777203 -0.083551124 0.19812742 0.10217067 0.031250786 0.08705339 -0.27782062
0.13657966 -0.3277412 -0.06633926 -0.080322534 -0.17584872 0.14892462 -0.11263255 -0.13162355
-0.051143773 -0.020737732 -0.06838507 0.037723538 0.15524551 0.03793638 -0.04340414 0.0105052525
-0.056833196 0.04582909 -0.20459352 0.07112355 -0.059661753 -0.113325104 0.12925866 0.08555427
-0.18028744 0.16029392 -0.010934829 -0.18701793 0.096634306 -0.044199817 -0.13884199 0.10542508
0.063250266 0.024048995 0.025126453 -0.09381506 0.0022723093 0.034096733 -0.05488147 0.047311716

actor_mean.0.bias f4 [64]
00000000: fd3e ac3d fc60 1ebd 3267 e7bd 9ce4 eabb
00000010: 233b 373e 06ae 64be 6c7b 9fbc 5d5b 263c
00000020: f6dc 9fbc 5bef d13d 2301 22bd d83f f13d
00000030: 98c9 8fbd 6e6f 2dbd b866 3ebd 935e 35bd
00000040: d2ec b53c c655 2cbc 13f1 02bd 3955 4c3d
00000050: 4e9b 18bc 9cbe 24be 8220 d4bd 80c9 dcbd
00000060: 4507 da3c 0f84 94bd 51e6 a1bd f0f2 7fbb
00000070: 382b 53bc f240 25be db35 bd3c cc40 a5bd
00000080: 062a ae3c 1d07 1ebd b140 3c3e fcdf 653c
00000090: 3153 b7bc fe6e 13be 2b48 ea3c d0fb 18bd
000000a0: cf9e a13d e213 8abd e4db f43c 2bdd 26bd
000000b0: 636f 25bd 258d d9bb eb78 263c 5535 d23c
000000c0: a43c 4f3c ef9b 4d3b 4dce b03d 29f7 cabd
000000d0: 6453 513c 128e d0bd 9aec 7dbd 6e6b 18bd
000000e0: 0ca9 ef3c 9972 9e3c 2c29 e9ba bd3a 4bbe
000000f0: 9157 b33a 5c02 7f3d 6a20 863c 3505 99bd
0.084104516 -0.03866671 -0.1129898 -0.0071683656 0.17893653 -0.2233201 -0.019468032 0.010153619
-0.019514542 0.102507316 -0.039551865 0.11779755 -0.07020873 -0.042342596 -0.04648468 -0.044279646
0.022207651 -0.010518497 -0.031968188 0.049885962 -0.009314371 -0.16088337 -0.10357763 -0.107806206
0.026614795 -0.07251751 -0.079052575 -0.0039054714 -0.012888722 -0.16138056 0.02309697 -0.08069
0.021260273 -0.038581003 0.18384053 0.014030453 -0.022378536 -0.14397809 0.028598865 -0.037349522
0.078916185 -0.067420736 0.029890008 -0.040738266 -0.04038943 -0.00663914 0.010160665 0.025660196
0.012648735 0.0031373461 0.08633099 -0.09910423 0.0127762295 -0.10183348 -0.06199322 -0.037211828
0.029255413 0.019341754 -0.001778876 -0.19846626 0.0013682713 0.06225811 0.016372878 -0.07471696

actor_mean.2.weight f4 [64, 64]
00000000: a1b5 273e 02a5 bf3e 96a0 563e 5dd5 303e
00000010: d4da 3dbd c2f8 a23e 285c 8b3c d17e ccbe
00000020: 35b6 71be e42d bdbe 3ffc 153d 281b 463e
00000030: b9d9 923e d272 a93d 8f57 b2bc 3d20 083e
00000040: cd84 1dbe 3ee7 e1bd e88c 71bd ef4c c13c
00000050: dd5d 123e f647 0b3e 3f4c 5b3d f0c0 11bb
00000060: b336 a93e d611 373e 1478 7f3e 2b2a 653d
00000070: 2fa6 1f3e 83de bf3d 4102 9cbc bf03 003e
00000080: b989 5ebe 5efb 58bd d902 18be 69f1 023c
00000090: f5d0 283e 1e80 81bc 75e3 5ebe 8033 fd3d
000000a0: 470d 91be 29e9 e73c 08dd 39bd 19c8 f73d
000000b0: 13f9 4e3e 806c 833d a390 6e39 5992 85be
000000c0: d421 f93d acfb afbc 3cfb 2fbe d60f 1a3e
000000d0: 7017 f1be db1d 8ebc 797c 0bbd ccc7 253e
000000e0: 2556 83bd d853 b8bd 3f34 88bd c412 0c3e
000000f0: 8afe a33b bfc3 a9bc e1ba 95be 6beb b03e
00000100: bd68 783d fe7f 203e 7b04 3e3d eb1e db3d
00000110: 0491 07be 1413 273e 3ef6 6dbe ad13 e8bd
00000120: d99b 04bd 2029 00be 4a20 b6bd 0436 abbd
00000130: 1152 a93e e44e 34bd a35a 3c3d ba8e e1bd
00000140: 4edb 05be 96d0 ed3d 1bd2 65bd 9cb9 203c
00000150: 6177 343d 3eed 7c3d 3ada d73c 7ec0 db3a
00000160: 70f7 8a3d 7b43 7e3d 786f 153e fc20 5dbe
00000170: 98f9 e7ba 8d70 6a3d 94a2 783d 3eea bbbc
00000180: 9541 a33d 886e e3bc 46c5 47be 32a6 9fbe
00000190: 495a 653d eaef 0b3e 83b5 d43c 3fa4 353e
000001a0: d063 153e f5ac 923d 61c0 1bbe 5089 c13d
000001b0: 74e8 343d b2ea 47be 0e4e 823c 58ae 04be
000001c0: 18d9 c53d b3d0 b7b9 a598 033e a49e 453e
000001d0: 3b8e 39be 4c95 f53d 5ba1 063d 6230 9ebd
000001e0: 94c7 833d 60d1 03be 1a8b 77bc 6f2c 9b3d
000001f0: 172e 773d 3094 be3d be08 633a 9270 573d
00000200: 3670 5fbe e9ca 6d3d 93f5 293e bb46 da3c
00000210: 53d9 d8bd 8e65 b5bd 4dc2 573e 2e27 9a3d
00000220: adda 3bbe c206 bcbd f4b6 843e ea76 963c
00000230: 4b86 5cbd fcb4 8a3d 8fd4 d33d 5f8c 943e
00000240: 9376 2d3d 36de 80bd 5d62 a23d 8a82 0d3d
00000250: 8c44 10be dfee 3d3d 0854 d13c d818 933d
00000260: c179 08be b5f6 303e a67e 363e bf59 1b3e
00000270: b871 093e 276f ec3c 6ad8 bcbd 370b 143c
00000280: 6d7c 4ebe d9d5 2abe 7e04 0f3d eeff 9a3d
00000290: 38d3 d2bd 1938 28bd 2c14 e7bd 7959 6d3e
000002a0: 5bc6 8b3d 223a d33d 4f57 eebb 10ba 913d
000002b0: 76c8 193e 5182 ccbb 4796 4cbe ac45 4ebe
000002c0: 1f43 073e 60e3 74bd 0a94 3d3c 6ec1 333c
000002d0: 9f87 e43d 3036 8b3d 18af f9bc f851 5d3e
000002e0: 2ead fcbd 7f5b 7f3c 8ad2 953d 00ff 4d3d
000002f0: ba6f 103e 0901 16bd 73ea ab3d cf71 c7bc
00000300: c3f6 2b3d e584 fe3c 426d 16bd 6dfe e7bd
00000310: 3972 78bd 5266 58bd 9052 e03a f99e b5bb
00000320: c52a f5bd 69be 03be eb6a 02be 1e72 d6bd
00000330: 7bef a2bd 5970 7f3d ecd5 393d bfe4 223e
00000340: 189a e8bd 72f0 2abe 6be0 fb3d 4e65 21be
00000350: 8014 1a3d 47aa 3dbe ac76 373e c03a 793d
00000360: e357 e0ba 3909 5d3d 3734 e43d d163 1d3e
00000370: fd92 46be 074b 453d 37d3 7bbd a6cb 6cbc
00000380: 136a 21bd 6b7d 7cbd bdc3 9e3d 14b4 78bd
00000390: 2bb1 cdbd 5689 78bd 0345 5a3e 47ca b1bd
000003a0: 8f83 94bd e9ec 933d 6e85 563b 7551 e0bd
000003b0: 4c72 5ebd bb3c ff3d c5f3 c3bd 08fc 12be
000003c0: afe9 793e f595 b0bc 2ded 383d c728 5e3d
000003d0: 780e 303d f9b8 293e 1596 893d 40b0 913d
000003e0: b697 41be 80dd e33b 8d69 a93d d04b f4bb
000003f0: 96ad 5a3d 03c4 38bd 6c09 44bd a6b4 a13d
0.1637788 0.37430578 0.20959696 0.17268892 -0.04635127 0.31830412 0.017011717 -0.39940503
-0.23604663 -0.36949074 0.036617514 0.19346297 0.28681734 0.08273853 -0.021770267 0.13293548
-0.1538269 -0.11030434 -0.05897227 0.023596255 0.14293619 0.1360167 0.05353951 -0.0022240244
0.33049545 0.17877898 0.2494815 0.055948418 0.15590738 0.093686126 -0.019044043 0.12501429
-0.21732225 -0.052974097 -0.14844836 0.007992127 0.16485961 -0.015808161 -0.21766455 0.123633385
-0.28330442 0.028309422 -0.045376807 0.120987125 0.20212202 0.06417179 0.0002275133 -0.26088217
0.12164655 -0.021482311 -0.17185682 0.15045103 -0.47088194 -0.01734822 -0.034054253 0.16189498
-0.06412915 -0.09000367 -0.0665059 0.13679034 0.0050047087 -0.020723222 -0.2924414 0.3455461
0.06064676 0.15673825 0.04639099 0.106992565 -0.13238913 0.16315871 -0.23238465 -0.11331878
-0.03237519 -0.12515688 -0.088928774 -0.08359912 0.33070424 -0.04402055 0.045984875 -0.11013551
-0.1307194 0.1161205 -0.056108575 0.009809878 0.04405916 0.06174969 0.026349176 0.0016765741
0.06785476 0.062076073 0.14593303 -0.21594614 -0.0017698286 0.057236243 0.06070192 -0.022938844
0.07971493 -0.027762666 -0.19508848 -0.31181484 0.055994306 0.13665739 0.025965458 0.17738436
0.14588857 0.07161895 -0.15210105 0.094500184 0.044166997 -0.19523123 0.01590636 -0.12957132
0.09660548 -0.00035059973 0.12851198 0.19298798 -0.18120663 0.11991367 0.032868724 -0.07724072
0.06434551 -0.12872839 -0.015108848 0.075768344 0.06034669 0.09305608 0.00086606655 0.05259759
-0.21820149 0.05805484 0.16597585 0.026645055 -0.10588326 -0.08857261 0.21070214 0.07527004
-0.18345137 -0.091809765 0.25920832 0.01836725 -0.05383901 0.06772801 0.10343277 0.29013345
0.04234941 -0.062923834 0.079289176 0.03454832 -0.14088649 0.046370383 0.025552765 0.07182473
-0.13327695 0.17281611 0.1782175 0.15170954 0.13422287 0.028861595 -0.09220965 0.009035877
-0.20164652 -0.16683139 0.034916393 0.07568346 -0.10294193 -0.041069124 -0.11283144 0.23178662
0.06824943 0.10313822 -0.0072735916 0.07115567 0.15017876 -0.006241121 -0.19979201 -0.20143765
0.13209198 -0.059787154 0.01157094 0.01097141 0.1115868 0.06797445 -0.030478999 0.216133
-0.12337719 0.015585779 0.07315548 0.050292015 0.1410512 -0.03662208 0.08394327 -0.02434626
0.041983377 0.031069228 -0.03672529 -0.11327825 -0.060655806 -0.052831955 0.0017114449 -0.0055426327
-0.11971048 -0.12865604 -0.12736098 -0.10470985 -0.079558335 0.062363002 0.045370027 0.15907572
-0.11357516 -0.16693285 0.12298664 -0.15761301 0.037617207 -0.18521987 0.17916363 0.060847044
-0.0017116036 0.053963874 0.11142772 0.15370108 -0.19392009 0.048167255 -0.061480727 -0.01445285
-0.0394078 -0.061643045 0.07752178 -0.06071861 -0.10043558 -0.06067785 0.21315388 -0.086811595
-0.07251655 0.072229214 0.003273334 -0.10953037 -0.05430822 0.12462755 -0.0956798 -0.14353955
0.2440555 -0.02155588 0.045148063 0.054238107 0.04298255 0.16574468 0.06718079 0.07113695
-0.1890553 0.006953895 0.08272085 -0.0074553266 0.0533882 -0.045108806 -0.047860548 0.07895784

actor_mean.2.bias f4 [64]
00000000: 135f 52bd a685 26bd 0152 903b 5bd5 8f3b
00000010: cc2c 14bd 0334 3abd 06f5 64bc 5083 94bd
00000020: e6cd 833d 51d9 f5bd cdfb beba c2b4 e83c
00000030: 8716 99bc 5d19 87bd 468f 1c3d 0c7d 54be
00000040: 364a 8ebb 779c fbbd 6797 b83a a12e 073b
00000050: a754 33be ab16 60bd 4d4f 17bd 8ecf 8bbd
00000060: ec45 853b ddbc 1b3e 9f79 513c 122b bebb
00000070: 5465 ca3c 2c5d 163d 3d90 7fbd 5fee 4d3e
00000080: a648 b63c 4766 0bbd 467a c63c cd0b c43b
00000090: 2f09 553e e227 293d b96d 59be 909b 903c
000000a0: 8e48 5ebd efab 603b 8100 a4bc db6e bc3c
000000b0: d472 a43c 12b8 32bd 33a2 fe3c 176a 0c3e
000000c0: b55f 913b 3ab2 81be 43ac b4bb 94d8 683c
000000d0: 37a1 3f3d dbf6 2f3d ae4b 163d fed9 bc3b
000000e0: 5d66 62bd 8230 2dbd b6f3 ff3c c585 28bd
000000f0: 7c50 df3d 0905 63bd 0a8d ebbc c179 7f3c
-0.0513602 -0.0406548 0.004404307 0.0043894476 -0.036175534 -0.04545976 -0.013974434 -0.07251608
0.064357564 -0.120043404 -0.0014570892 0.028406505 -0.0186875 -0.065966345 0.038222574 -0.20750827
-0.0043423427 -0.12285703 0.0014083207 0.0020627158 -0.17512761 -0.054709118 -0.03694086 -0.06826697
0.004067173 0.15208764 0.012785344 -0.005803474 0.02470652 0.03670995 -0.062393416 0.20110463
0.022251438 -0.034033086 0.024228226 0.005982852 0.20804285 0.0412978 -0.21233262 0.017652303
-0.054268412 0.0034282168 -0.020019772 0.023002079 0.020074286 -0.043632574 0.031083202 0.13712345
0.004436458 -0.2533129 -0.0055136993 0.0142117925 0.046784606 0.04296003 0.036693268 0.0057632914
-0.055273402 -0.04228259 0.03124414 -0.041143198 0.10904023 -0.055424724 -0.028753776 0.015592993

actor_mean.4.weight f4 [4, 64]
00000000: 4e98 433c a47d 923d 7e63 55bd a363 8abd
00000010: d5c5 1ebd 16b9 11bd 6695 b33b e49b 223d
00000020: 196f 6a3d 0bb1 acbd e900 1dbd 0ca3 c83b
00000030: 75a0 bfbd e9bc c43c 0453 353d b9f1 04bd
00000040: b28e 253c 6967 b03c ddb7 60bd 3983 783d
00000050: 665c d53c 0d20 8dbc 9ac7 533d a761 cf3c
00000060: 8207 1bbd e350 31bd 5f43 cd3c 6bd3 82b8
00000070: 6e44 bbbd 3f6d 94bc 1461 6b3c e0f3 043d
00000080: 8898 edbb f3c4 783d 9e75 4f3d 362f 07bd
00000090: 0618 6d3c f18c 91bd b45b 06bd 7ead c1bc
000000a0: 3b6c bd3d 1ba2 ccbd 6993 cabd 975f 43bc
000000b0: d93e 713d 49cb 66bd cc39 143d 22b8 0b3d
000000c0: 9f44 75bc bea1 e93b d315 683d fd80 8d3d
000000d0: 9464 843c 5d2e 863d 9515 6cbd 5581 153d
000000e0: 87f8 25bd 539b 8bbd 50ae f33b defa 26bc
000000f0: e536 983c 6586 febc d8d0 503c 3ddc 0d3d
00000100: c2c8 d9bd 53ae a9bd 3215 783d 3712 fcbc
00000110: 8500 afbd f72d 30bd e34c c1bc 394f c63d
00000120: cc22 813d 0ade 30bd 800f 463d 5d5d 2aba
00000130: bf0d 69bd c06e 933c 4ad8 993c f6a2 9c3b
00000140: 8b4e 753d e8b4 233d 7c72 e9bc 964d afbc
00000150: 6d0b 923d cdaa 0dbb c4c2 d93d 4e72 7c3d
00000160: 18aa 623c 4e64 33bd d7c3 6fbd 1511 97bc
00000170: cdd3 c63c 5b65 48bc 1990 3fbd 601b 0c3d
00000180: 1fa3 99bc 758a 68bd 83e8 23bd b1dd a8bc
00000190: 32bf 2f3c 0971 8d3d c55e 28bc 9569 8d3d
000001a0: 0a96 153c 0942 97bd 113c b1bd c9af 7c3d
000001b0: 9f03 203c 999d e63d 9973 643d 484c e83d
000001c0: f0a0 f93c 302a 10bd 7dc7 9abd 7ce1 a63c
000001d0: f272 ae3d 7fd7 b23c f09d 333c d116 14bd
000001e0: 0848 8ebd 7328 7c3d 6a2c b0bd 1516 febc
000001f0: 0990 54bd a0b5 e8bc fcfd 9d3d 4b4e 99bd
00000200: 9e8d 0fbd 3e47 d63c babe 893d 86b3 603e
00000210: e857 663d 8e91 983d 4be3 d0be 3200 47bd
00000220: 5615 c13d dbfd c4bd f27c 433e ead5 f23d
00000230: 9afe fbbd 4422 9fbe a632 1f3e 491e 32be
00000240: a6bc 523d ce55 e9bd 6612 3b3d fee8 49bc
00000250: d0ed 1abe 9c89 073e f5f1 aabd bc39 12bc
00000260: c3dd f03c 5459 e43d 6db7 c4bc a729 3bbe
00000270: a1c8 3dbe d96d f33d dad0 723c 6525 003e
00000280: 9d53 423d 3e15 64bd 662a 4a3e def5 413d
00000290: bcf1 353e a0f1 ce3a 8cd9 06be 24ff 113e
000002a0: 585f a1bd cd77 c63d 99fc 5fbd c6bb fdbd
000002b0: 6fe6 7d3d 7e5e 4d3d a67b 343d 5118 adbb
000002c0: 2d4b 8f3c 6ef1 17be d22e c73d 5618 ccbc
000002d0: c621 bdbc ec38 aa3d 37a4 46be ff2c db3c
000002e0: 55c9 f53d 97af 83bd 5561 55bd ae4d 2ebd
000002f0: a5c0 e43d 3d18 8c3d 65a4 54bd 0679 923d
00000300: 79f5 e93d 6c21 73bd b713 513d 8e9e 46bd
00000310: f04e 903b 7307 fdbd 1f63 36bd 4d14 febc
00000320: 885d 0fbd d427 b8bd 4191 05be 271f 293e
00000330: 6632 1ebc 5fe4 2bbe fd2d c33d 5649 1bbe
00000340: 6799 10be b33d e4bd 706d 613e 98db 023e
00000350: 8589 26be c6e5 0bbe e4f4 423d e0d8 74bd
00000360: 6e31 ff3c 6e81 273e bb0d 913d b652 44bd
00000370: c1cd 4c3e 6354 0f3d 7b54 a2bd e3bd 3c3e
00000380: 303e 093e 634f aabd 8ae6 8d3c 3e58 ce3d
00000390: 96c9 063e 181e 173d 1c32 10be a49d 743c
000003a0: 6190 bbbd 74a9 f43c 7135 35bd 2b5e f23d
000003b0: aac9 27bd b274 d0bb 0ee0 c6bd ad63 433c
000003c0: 51fa f9bc 7b22 f1bd a55b 763e 9b9c f63d
000003d0: 9a89 51bd c7ba 10b9 11da 3f3d 1702 0e3e
000003e0: e77e 52bc f29a b5bc f49b b3bd a19f 6fbe
000003f0: b81d dd3d 2574 aebd 6b60 bf3c 76c9 48bd
0.011938168 0.0715287 -0.052096836 -0.067572854 -0.038762886 -0.035576902 0.005480456 0.03969945
0.057234857 -0.08432206 -0.038330946 0.0061229523 -0.093567766 0.02401586 0.044268623 -0.032457087
0.010104822 0.021533685 -0.054862846 0.06067202 0.026045036 -0.017227197 0.051704027 0.025315119
-0.037848957 -0.04329003 0.02505654 -6.238263e-05 -0.09143911 -0.018118499 0.014366407 0.03245914
-0.007250849 0.0607347 0.050649278 -0.03300401 0.01447106 -0.071069606 -0.0328023 -0.023642298
0.09249159 -0.09991857 -0.098913975 -0.011924646 0.058897827 -0.05634621 0.036187932 0.03411115
-0.014969974 0.007129877 0.05666144 0.06909368 0.01616124 0.06551812 -0.05763777 0.036500294
-0.040520217 -0.06816735 0.007436551 -0.010191647 0.018580863 -0.031069944 0.012745105 0.034633864
-0.10633995 -0.08285203 0.06056709 -0.030770404 -0.08545021 -0.043012585 -0.023596233 0.09683079
0.06305465 -0.043180503 0.048354626 -0.00064988976 -0.056897875 0.017997146 0.018779892 0.0047801686
0.059889358 0.039967448 -0.028496973 -0.0213993 0.071310855 -0.0021616698 0.10632852 0.061632447
0.013834499 -0.04379683 -0.058536377 -0.018440763 0.024270916 -0.012231196 -0.04676828 0.034205794
-0.01875454 -0.056772668 -0.040016662 -0.020613523 0.010726737 0.06906325 -0.010276501 0.06904904
0.00913001 -0.07385642 -0.08654035 0.06169108 0.009766488 0.11260528 0.055774305 0.113426745
0.030472249 -0.035196483 -0.075575806 0.020371191 0.08518018 0.021831272 0.010962948 -0.036154572
-0.069473326 0.061562013 -0.08602221 -0.031016389 -0.051895175 -0.028406918 0.07714459 -0.07485636
-0.035047166 0.026157018 0.06725831 0.21943483 0.056236178 0.07449637 -0.4079841 -0.04858417
0.09427898 -0.096187316 0.19090632 0.11857207 -0.12304421 -0.3108083 0.15546665 -0.17394365
0.05144944 -0.11393319 0.045671843 -0.012323616 -0.15129781 0.13236088 -0.08346931 -0.008924898
0.02940262 0.111498505 -0.024013245 -0.18277608 -0.18533565 0.11886186 0.014820302 0.12514265
0.04744302 -0.05568432 0.19742736 0.047353618 0.17767996 0.0015788563 -0.13168925 0.14257485
-0.078795135 0.09690819 -0.054684255 -0.123893306 0.061987337 0.050138943 0.044063233 -0.0052824398
0.017491901 -0.14838192 0.09725727 -0.024913948 -0.023087393 0.08311638 -0.1939858 0.026754854
0.12001292 -0.064299755 -0.052094776 -0.04255455 0.111695565 0.068405606 -0.05191459 0.0715199
0.11423773 -0.059358045 0.051044192 -0.048491053 0.0044039413 -0.123549365 -0.044528123 -0.03101554
-0.035001308 -0.089919716 -0.13043691 0.1651579 -0.009655571 -0.16786335 0.09530256 -0.15164694
-0.14121018 -0.11144581 0.22014403 0.12779081 -0.16263397 -0.1366187 0.047596827 -0.05977714
0.0311515 0.16357967 0.07082697 -0.04793044 0.20000364 0.034992587 -0.079262696 0.18431811
0.13402629 -0.08315923 0.017321844 0.100754246 0.13162836 0.036893934 -0.14081615 0.014930163
-0.091583975 0.029865958 -0.04424042 0.11834367 -0.040963806 -0.0063615674 -0.09710704 0.01192562
-0.030514868 -0.11774155 0.24058397 0.12041589 -0.051156618 -0.0001380249 0.046838824 0.13867985
-0.012847639 -0.02216861 -0.0876998 -0.23400737 0.10796684 -0.085182466 0.023361405 -0.049020253

actor_mean.4.bias f4 [4]
00000000: 9e5b 603c 719b 553d 7eec 203e ab24 c03d
0.013693718 0.052150194 0.15715215 0.09381994
