lsy_drone_racing/control/ppo_drone_racing.ckpt (torch, 77927 bytes, 12 tensors)

actor_logstd f4 [1, 4]
-3.7481682 -3.7180102 -3.2852957 -2.9008522
00000000: fde1 6fc0 e1f3 6dc0 4942 52c0 90a7 39c0

critic.0.weight f4 [64, 73]
0.02379371 0.06037559 0.17893331 0.30158353 0.17804107 0.06955062 -0.13014428 0.20754412
-0.14371368 1.0435283 0.040574796 0.030356906 0.121774845 -0.9016819 0.13188739 -0.70917153
-0.9793259 0.29416046 -1.3782283 -0.5619979 0.36378336 -1.0285535 -0.3638616 0.31117892
-0.6683105 -0.1548468 0.1769144 -0.38795027 -0.2063716 0.18293118 -0.17475326 -0.054198284
0.06582045 -0.1937764 0.037417743 0.09073889 -0.010934329 0.1840056 0.10960522 0.07008038
-0.13635843 0.010744003 0.11815127 -0.030142184 0.040617116 0.010008422 0.20046514 0.24654971
0.061541896 -0.021865662 0.112182856 -0.14795071 -0.4552145 0.012025152 0.0059578153 0.016263103
-0.016989673 0.037859928 -0.02795314 0.35276708 0.33501762 0.072649 -0.0466762 0.10933561
-0.2553796 -0.04189453 0.008941734 -0.002077787 -0.07564318 0.16896929 0.17640652 -0.0020537144
0.07366079 -0.09935565 0.13741694 -0.041398887 -0.27806443 -0.76451784 -0.18210752 0.10416569
-0.20276716 -0.087475166 0.27005056 -0.022025859 -0.04872642 -0.019441195 1.6657716 0.013059442
-0.13148344 1.043297 -0.24106216 0.29393086 0.7074616 -0.16216159 0.0707275 0.25074336
-0.05021774 0.15327802 0.27869305 0.016793663 0.010945668 0.04740903 -0.08268052 0.13563627
0.05132971 -0.029353952 0.15558743 0.0071710083 -0.14255467 -0.024441851 -0.33060342 0.018118486
-0.12152058 -1.0144302 0.32261 -0.3314303 0.16100289 -0.14276843 0.31903827 -0.14192773
-0.3805938 -0.16336279 0.13867244 -0.05874862 0.100740284 -0.21614446 -0.0060414425 0.015998166
0.06860194 0.028995605 0.03421229 0.22269213 -0.13864867 -0.44335487 -0.21787637 0.059047207
-0.1620798 0.0350099 -0.06393811 0.0040143183 -0.0065430515 -0.03222758 0.0734768 -0.13433884
0.13747433 0.16930443 -0.1430845 0.074483834 -0.24347019 0.27255037 -0.7051286 0.056165624
-0.021484228 -0.5711038 -0.24694146 0.7500315 0.055415176 -0.041947354 0.05366482 0.030795831
0.114934 0.2313192 0.948959 0.5153457 -0.22584485 0.70466536 0.5406333 -0.17003682
0.53050125 0.41913453 -0.30429077 0.39590737 0.32256514 -0.20723075 0.14883448 0.116795614
-0.25635096 0.13213891 0.049910948 -0.08045418 0.0049343477 0.022703461 -0.022669 0.14497416
0.07744899 0.027999388 -0.04241865 -0.130219 0.096011825 0.09103283 -0.07280941 0.1583307
0.39679727 -0.048011713 0.24558207 0.077508666 -0.011709601 0.0073105693 -0.31452668 0.020563968
-0.014963988 0.0023324143 0.08049755 0.038703993 0.025586937 0.29295918 -0.4122564 0.21183492
-0.03313689 -0.13627514 -0.24963972 -0.20206623 -0.02172039 0.029325666 -0.058878206 0.25450012
-0.20761904 0.013308767 0.2232724 -0.052146345 -0.09412913 0.28146994 0.113737814 0.24268234
-0.081776634 0.050666254 -0.034775835 0.019119455 -0.19739427 0.036738545 0.048175998 0.092259996
0.050172385 0.09453618 0.17703451 0.0651109 0.00089413364 0.44274622 -0.028287103 -0.09015808
0.14231293 -0.059490096 -0.009361607 0.039624937 -0.11505033 0.028259682 0.021729527 -0.15957601
0.038375556 0.05341291 -0.11706038 0.010084402 0.16274713 0.049723785 -0.025146775 0.42318216
00000000: 07eb c23c 654c 773d 4b3a 373e 2869 9a3e
00000010: 6650 363e 8e70 8e3d 8b44 05be 7286 543e
00000020: ae29 13be 5692 853f c231 263d 0caf f83c
00000030: 1765 f93d a0d4 66bf 7d0d 073e 448c 35bf
00000040: 1ab5 7abf 339c 963e c969 b0bf 18df 0fbf
00000050: d041 ba3e a4a7 83bf 114c babe d852 9f3e
00000060: 6616 2bbf 2990 1ebe 0c29 353e 6ba1 c6be
00000070: 1453 53be 5052 3b3e 85f2 32be 05ff 5dbd
00000080: dfcc 863d 526d 46be 5943 193d 50d5 b93d
00000090: e625 33bc f76b 3c3e b478 e03d 4d86 8f3d
000000a0: 8ba1 0bbe 9d07 303c 4bf9 f13d beec f6bc
000000b0: 225e 263d 5dfa 233c bc46 4d3e 8777 7c3e
000000c0: 5b13 7c3d 9e1f b3bc 20c0 e53d 6480 17be
000000d0: e011 e9be 2505 453c c739 c33b 333a 853c
000000e0: ed2d 8bbc 0313 1b3d fcfd e4bc e39d b43e
000000f0: 6e87 ab3e 00c9 943d 8b2f 3fbd 59eb df3d
00000100: 1dc1 82be 9999 2bbd 5a80 123c 7b2b 08bb
00000110: d0ea 9abd 4906 2d3e e9a3 343e 9c97 06bb
00000120: 78db 963d fa7a cbbd 07b7 0c3e e191 29bd
00000130: 765e 8ebe 71b7 43bf 657a 3abe d254 d53d
00000140: 32a2 4fbe 2e26 b3bd 1144 8a3e 936f b4bc
00000150: 5b95 47bd 2443 9fbc 0138 d53f 45f7 553c
00000160: 98a3 06be c28a 853f 00d9 76be 1b7e 963e
00000170: 341c 353f b00d 26be 94d9 903d 6f61 803e
00000180: 1eb1 4dbd eaf4 1c3e dbb0 8e3e dd92 893c
00000190: 7655 333c f92f 423d 6854 a9bd 3ce4 0a3e
000001a0: 1a3f 523d b377 f0bc 5052 1f3e c7fa ea3b
000001b0: daf9 11be 473a c8bc da44 a9be 386d 943c
000001c0: c8df f8bd d9d8 81bf 232d a53e 3bb1 a9be
000001d0: f1dd 243e e331 12be fc58 a33e 8155 11be
000001e0: 31dd c2be 9348 27be 2600 0e3e 65a2 70bd
000001f0: ec50 ce3d f954 5dbe 4bf7 c5bb 960e 833c
00000200: 2d7f 8c3d 3188 ed3c 3022 0c3d 6809 643e
00000210: ebf9 0dbe 69ff e2be fc1a 5fbe 7cdb 713d
00000220: 3ff8 25be 8a66 0f3d fcf1 82bd 8b8a 833b
00000230: 1867 d6bb 1101 04bd 017b 963d 1f90 09be
00000240: 12c6 0c3e 245e 2d3e be84 12be fb8a 983d
00000250: 4050 79be b98b 8b3e 4f83 34bf ed0d 663d
00000260: b1ff afbc dc33 12bf 39de 7cbe 1002 403f
00000270: 06fb 623d fdd0 2bbd a4cf 5b3d 8a47 fc3c
00000280: 8462 eb3d f1de 6c3e faee 723f b2ed 033f
00000290: df43 67be f364 343f f266 0a3f 221e 2ebe
000002a0: eece 073f cd98 d63e 00cc 9bbe 5fb4 ca3e
000002b0: 4227 a53e 4c34 54be 1168 183e 8a32 ef3d
000002c0: 6f40 83be 6c4f 073e 6c6f 4c3d 29c5 a4bd
000002d0: 4fb0 a13b 9cfc b93c 57b4 b9bc 1b74 143e
000002e0: 939d 9e3d f95e e53c 2ebf 2dbd 2158 05be
000002f0: d9a1 c43d 6c6f ba3d 1a1d 95bd 7121 223e
00000300: 0329 cb3e eea7 44bd de79 7b3e ddbc 9e3d
00000310: a0d9 3fbc 808d ef3b a409 a1be c475 a83c
00000320: 842b 75bc 6bdb 183b e6db a43d 1488 1e3d
00000330: b29b d13c bffe 953e 4513 d3be 41eb 583e
00000340: 8cba 07bd b68b 0bbe 8ea1 7fbe 73ea 4ebe
00000350: f6ee b1bc 613c f03c 462a 71bd d74d 823e
00000360: 169a 54be 040d 5a3c 85a1 643e 6897 55bd
00000370: c6c6 c0bd d41c 903e 5fef e83d b881 783e
00000380: 827a a7bd 6b87 4f3d 1b71 0ebd 67a0 9c3c
00000390: b921 4abe 287b 163d 3254 453d cff2 bc3d
000003a0: 8f81 4d3d 2f9c c13d 8948 353e dd58 853d
000003b0: 4b64 6a3a a2af e23e 5bba e7bc cda4 b8bd
000003c0: 7bba 113e e3ab 73bd 6d61 19bc c24d 223d
000003d0: 829f ebbd d980 e73c 1f02 b23c e567 23be
000003e0: b02f 1d3d 7fc7 5a3d 5abd efbd 0c39 253c
000003f0: 2fa7 263e 2bab 4b3d 9c00 cebc 55ab d83e

critic.0.bias f4 [64]
-0.18992999 0.11430849 -0.05455102 0.03971056 0.23179427 -0.24061435 0.2555996 -0.8310898
0.1657933 -0.21541004 0.2117128 -0.28162885 -0.27356476 -0.04225236 -0.0013596985 -0.17687114
-0.42289135 0.34064212 0.014633571 -0.4246146 0.20277941 -0.013643948 0.09354828 -0.28500566
0.18982892 0.26653787 -0.22012848 0.10046642 -0.25616056 -0.122255705 0.25136515 -0.036032237
-0.16812408 -0.4795128 -0.15899514 0.03284941 0.19036402 0.15547343 -0.44147283 0.22036259
0.051676616 0.088156946 0.014327486 0.12027488 -0.2713383 0.4210209 -0.10651811 -0.17679416
0.33351076 0.24437985 0.020222632 0.25718284 0.15770867 0.25856563 -0.18494272 -0.28841385
-0.00957916 -0.16317171 0.23283324 0.21188582 0.048266727 0.02571646 0.17738736 0.06897362
00000000: 027d 42be 921a ea3d e470 5fbd 8aa7 223d
00000010: 7a5b 6d3e 9c63 76be f3dd 823e 4dc2 54bf
00000020: b8c5 293e 7394 5cbe 3ecb 583e a831 90be
00000030: ae10 8cbe d010 2dbd e937 b2ba b51d 35be
00000040: 3785 d8be a568 ae3e a5c1 6f3c 1667 d9be
00000050: 68a5 4f3e de8a 5fbc 3e96 bf3d 43ec 91be
00000060: 8362 423e a777 883e 5c69 61be 57c1 cd3d
00000070: 7a27 83be 3361 fabd efb2 803e 8a96 13bd
00000080: b828 2cbe b482 f5be 9fcf 22be 1a8d 063d
00000090: c9ee 423e 6d34 1f3e ba08 e2be bba6 613e
000000a0: dcaa 533d a18b b43d d5bd 6a3c ad52 f63d
000000b0: dbec 8abe 0d90 d73e 2b26 dabd 8709 35be
000000c0: ecc1 aa3e b63e 7a3e efa9 a53c 78ad 833e
000000d0: 627e 213e b762 843e a061 3dbe fbaa 93be
000000e0: e9f1 1cbc 7c16 27be d66b 6e3e 99f8 583e
000000f0: 55b3 453d 53ab d23c 08a5 353e 0b42 8d3d

critic.2.weight f4 [64, 64]
0.120712474 0.26069468 0.27835003 0.038563035 0.15298848 0.2330343 -0.09910319 0.10847958
0.22309087 -0.041697305 -0.13297895 0.05626056 0.10744795 -0.007806642 -0.03718162 0.048967816
0.10212951 -0.15920386 0.31408805 0.06522335 -0.04270617 -0.26199237 -0.08904373 0.04551018
0.3483264 0.2231459 -0.19687231 0.039590005 -0.03486651 0.061292544 -0.030690368 0.44746906
0.28274712 0.071821496 -0.1174394 0.051344585 -0.3005078 0.09148405 -0.022262948 -0.13015214
-0.09825587 -0.17020994 -0.15855052 0.24101235 0.051112033 0.02813054 0.52034557 -0.09005826
0.1982526 0.08061694 -0.22655568 -0.13036188 0.06901776 0.12549686 -0.0006165088 0.18864909
0.5095433 -0.11842489 0.18162093 -0.00809671 0.21050759 0.19383457 -0.07131107 0.07505225
0.12717982 -0.15498053 -0.5331282 -0.022052208 -0.09674205 0.23860118 -0.2581117 -0.04450134
0.23089297 0.016804088 -0.052990623 -0.1620867 0.011869718 0.025183529 -0.041957002 0.22850612
-0.0004013313 0.006098863 -0.25338453 0.13556243 0.22298864 0.1541359 0.085991636 -0.17369242
0.1497379 0.25362942 0.025990482 -0.068106346 -0.057000224 0.024684342 0.056025982 0.34531012
0.02146413 0.2774949 -0.15573822 0.02950292 0.102124006 -0.07952569 0.01575522 0.03542669
0.23394307 0.3741923 0.02609692 -0.053576063 -0.077853166 -0.13041538 -0.36721227 -0.08487491
-0.08201008 0.4648978 0.14228922 0.2676902 -0.11793256 -0.24467401 -0.107479386 0.07192304
-0.43495375 0.2312713 -0.21961537 -0.06752766 -0.6009311 -0.041893527 -0.12931158 0.006411143
0.23071127 0.09968995 0.4842822 0.13714756 0.06607531 -0.018152678 0.047726855 0.11020979
0.039160408 -0.18340135 -0.22605544 0.08809905 -0.07270819 -0.105566114 0.110715896 0.27879673
-0.14714564 -0.09014998 -0.16542825 -0.16623533 0.12658983 0.5014166 -0.37597254 0.15942712
0.095893174 -0.06507002 0.09112192 0.12261152 0.120601885 0.10881713 -0.27744633 -0.0024246776
-0.30264285 0.044039182 -0.19528596 0.04243941 0.0122692585 0.10152071 0.031495534 -0.03596457
-0.56675863 -0.042842455 -0.4530153 0.12480146 0.08047929 -0.09873838 -0.000736482 0.061814133
-0.007145477 -0.08099112 -0.06540091 -0.1150683 0.06008088 -0.0042206077 0.052695192 -0.03862434
-0.27266657 -0.04453263 0.052416403 -0.06011855 -0.5026039 0.75249016 -0.06493531 -0.053324703
0.06455351 -0.06662196 -0.06677649 -0.2469699 -0.09031373 0.33347654 -0.24406275 -0.50933444
-0.118015304 0.21637437 -0.052946348 -0.27733356 -0.06652261 -0.032295186 -0.21274225 -0.025512839
-0.08105391 0.4508782 0.28873977 -0.34261143 0.20022297 -0.17455073 -0.22063312 -0.048610635
-0.28211784 -0.3242154 0.13106337 0.30030444 -0.047470614 0.11623322 0.50906724 0.1441678
-0.033303235 0.028251639 0.2373313 -0.25456145 -0.2157702 -0.11317144 -0.36791655 0.14957957
-0.046847332 0.67300564 -0.061300457 -0.17409734 -0.21707048 0.124770604 -0.21597122 0.044047024
-0.062323894 0.63213867 0.3014829 0.6227219 -0.35279113 -0.31999123 0.16793893 0.037677385
-0.7116847 0.08181831 -0.25852066 -0.17515403 -0.25892028 0.03377383 -0.36169994 -0.028542915
00000000: 1a38 f73d c679 853e e583 8e3e 46f4 1d3d
00000010: 03a9 1c3e 8ba0 6e3e 9df6 cabd 8b2a de3d
00000020: ef71 643e cbca 2abd a22b 08be 7971 663d
00000030: ac0d dc3d dcce ffbb c14b 18bd 7a92 483d
00000040: 4729 d13d 5606 23be 26d0 a03e d293 853d
00000050: aaec 2ebd dd23 86be 8f5c b6bd e268 3a3d
00000060: d757 b23e 5c80 643e e598 49be 2129 223d
00000070: 30d0 0ebd e40d 7b3d 5e6a fbbc aa1a e53e
00000080: 3bc4 903e 2617 933d 1184 f0bd b34e 523d
00000090: 29dc 99be fd5b bb3d c960 b6bc 9a46 05be
000000a0: 603a c9bd 844b 2ebe 115b 22be f1cb 763e
000000b0: da5a 513d 0572 e63c 5e35 053f 7770 b8bd
000000c0: bb02 4b3e 7f1a a53d 36fe 67be 967d 05be
000000d0: 2f59 8d3d 4082 003e 359d 21ba 3a2d 413e
000000e0: 6e71 023f c088 f2bd d6fa 393e 10a8 04bc
000000f0: 4d8f 573e 927c 463e 8a0b 92bd feb4 993d
00000100: 6d3b 023e 37b3 1ebe 177b 08bf d5a6 b4bc
00000110: b220 c6bd de53 743e 3727 84be 0947 36bd
00000120: 356f 6c3e baa8 893c b20c 59bd 0efa 25be
00000130: 3579 423c b04d ce3c 1bdb 2bbd 82fd 693e
00000140: c669 d2b9 f9d8 c73b 9ebb 81be e1d0 0a3e
00000150: 2257 643e cdd5 1d3e 621c b03d 6ddc 31be
00000160: e454 193e b7db 813e fee9 d43c 577b 8bbd
00000170: 1179 69bd d136 ca3c 807b 653d 7dcc b03e
00000180: 8bd5 af3c d013 8e3e d779 1fbe 1cb0 f13c
00000190: 6426 d13d 5dde a2bd 1711 813c 941b 113d
000001a0: c68e 6f3e 2296 bf3e 35c9 d53c 9372 5bbd
000001b0: 7b71 9fbd 9c8b 05be 3f03 bcbe e6d2 adbd
000001c0: e7f4 a7bd 1607 ee3e 44b4 113e b10e 893e
000001d0: a086 f1bd d38b 7abe 271e dcbd 634c 933d
000001e0: 42b2 debe 62d2 6c3e dae2 60be f14b 8abd
000001f0: 9fd6 19bf 8c98 2bbd 416a 04be 9114 d23b
00000200: 933f 6c3e 3f2a cc3d d6f3 f73e 6970 0c3e
00000210: 7e52 873d edb4 94bc 3c7d 433d acb5 e13d
00000220: aa66 203d 90cd 3bbe 147b 67be 466d b43d
00000230: 08e8 94bd 0c33 d8bd 04bf e23d 72be 8e3e
00000240: 59ad 16be 8da0 b8bd 0666 29be 9839 2abe
00000250: c4a0 013e d75c 003f 797f c0be dd40 233e
00000260: a463 c43d 6e43 85bd 219e ba3d c01b fb3d
00000270: 1ffe f63d 84db de3d 720d 8ebe 57e7 1ebb
00000280: 01f4 9abe 6e62 343d 0bf9 47be f2d4 2d3d
00000290: 0005 493c 17ea cf3d 7601 013d 964f 13bd
000002a0: 1817 11bf 927b 2fbd 9ff1 e7be e897 ff3d
000002b0: 53d2 a43d 5937 cabd 7810 41ba d130 7d3d
000002c0: 9b24 eabb acde a5bd eaf0 85bd eea8 ebbd
000002d0: 5e17 763d 064d 8abb ead6 573d 8e34 1ebd
000002e0: f49a 8bbe d967 36bd 95b2 563d de3e 76bd
000002f0: a6aa 00bf 32a3 403f cefc 84bd 016b 5abd
00000300: a134 843d 1871 88bd 1dc2 88bd ade5 7cbe
00000310: 68f6 b8bd 70bd aa3e 96eb 79be be63 02bf
00000320: 02b2 f1bd 3e91 5d3e 45de 58bd aafe 8dbe
00000330: 023d 88bd f547 04bd 1bd9 59be 4d00 d1bc
00000340: 98ff a5bd 82d9 e63e b3d5 933e c46a afbe
00000350: 4007 4d3e 6dbd 32be a6ed 61be f21b 47bd
00000360: c071 90be 90ff a5be 7a35 063e 81c1 993e
00000370: 8c70 42bd af0b ee3d 3b52 023f b9a0 133e
00000380: f968 08bd fb6f e73c fa06 733e e155 82be
00000390: ddf2 5cbe 6ec6 e7bd 8f5f bcbe 632b 193e
000003a0: fde2 3fbd 194a 2c3f 3016 7bbd 9346 32be
000003b0: b947 5ebe bb87 ff3d 8f27 5dbe a76a 343d
000003c0: 5747 7fbd d7d3 213f f75b 9a3e b46a 1f3f
000003d0: 0aa1 b4be e4d5 a3be 2ff8 2b3e 9a53 1a3d
000003e0: f830 36bf 5c90 a73d d25c 84be 945b 33be
000003f0: 3391 84be 6d56 0a3d bc30 b9be d5d2 e9bc

critic.2.bias f4 [64]
0.21865645 -0.21952888 -0.11070692 0.031794086 -0.7314855 -0.12539889 -0.011391286 -0.07187972
0.7115316 -0.0898726 0.15590475 0.016574174 0.020447437 0.15231508 0.15095013 0.3080448
0.16354956 -0.011183021 0.09241948 -0.49662617 -0.15783474 0.10442185 -0.12455777 -0.14858931
0.06646398 0.06349228 0.5281463 0.04878674 -0.07125059 -0.12945382 0.055668637 -0.12859662
0.1694612 -0.2793455 0.2915045 0.0069391946 -0.07772562 -0.16964795 -0.065594345 0.066439286
0.22902383 -0.1851597 -0.09300502 -0.080876835 0.09222397 -0.025608756 -0.28398168 0.12202337
-0.00072472484 -0.18893869 -0.12326576 -0.8058123 0.11896185 0.17787541 -0.16628796 0.09574804
0.14059807 0.5603242 0.15769032 -0.04668329 0.10759963 -0.32877132 0.018342212 0.7342674
00000000: 7ae7 5f3e 2ecc 60be 4fba e2bd 843a 023d
00000010: a242 3bbf 9168 00be 84a2 3abc ad35 93bd
00000020: ef26 363f 200f b8bd 7fa5 1f3e 90c6 873c
00000030: 6281 a73c 7cf8 1b3e ac92 1a3e 0cb8 9d3e
00000040: 8979 273e fd38 37bc 6d46 bd3d c945 febe
00000050: 6e9f 21be 1fdb d53d 2518 ffbd cc27 18be
00000060: 441e 883d 3e08 823d 9934 073f 9bd4 473d
00000070: d4eb 91bd 8b8f 04be cc04 643d d5ae 03be
00000080: 3d87 2d3e 6006 8fbe 1440 953e 2f62 e33b
00000090: 9c2e 9fbd 31b8 2dbe 5456 86bd 5211 883d
000000a0: 3985 6a3e 819a 3dbe 6a79 bebd c1a2 a5bd
000000b0: ecdf bc3d 74c9 d1bc 0c66 91be 63e7 f93d
000000c0: 76fb 3dba 2579 41be c272 fcbd b749 4ebf
000000d0: 45a2 f33d f924 363e 6447 2abe 8c17 c43d
000000e0: f1f8 0f3e 6871 0f3f 9279 213e fa36 3fbd
000000f0: 325d dc3d b754 a8be 6842 963c f3f8 3b3f

critic.4.weight f4 [1, 64]
0.24794722 -0.49980575 -0.38735247 -0.57865196 -0.39174938 -0.4286326 -0.4844213 -0.5791967
0.43100563 -0.43130195 0.47952652 -0.2649815 0.32984665 0.42150864 0.2745525 0.4275104
0.36919245 -0.5316725 0.40514392 -0.4117321 -0.43358234 0.47537637 -0.5751883 0.85450125
0.41038477 0.4000732 0.24712789 -0.54558325 -0.29825166 -0.51893044 0.39651358 -0.35029507
0.4039902 -0.33838937 0.33755234 -0.35674062 -0.33332202 -0.35130742 0.5088808 0.37225425
0.3554338 -0.5328131 -0.44243288 -0.380598 0.6870426 -0.43853146 -0.41616806 -1.3234023
0.2930932 -0.42713287 -0.48202226 -0.46149936 0.3644999 0.4086281 -0.407946 0.35445637
0.4840601 0.5103742 0.3313838 0.3139858 0.93800545 -0.3574744 -0.40685186 0.4191831
00000000: e0e5 7d3e 8ae6 ffbe 1053 c6be 8922 14bf
00000010: 6093 c8be bb75 dbbe 1206 f8be 3c46 14bf
00000020: c5ac dc3e 9cd3 dcbe 8084 f53e a8ab 87be
00000030: a9e1 a83e fbcf d73e 2592 8c3e a5e2 da3e
00000040: cb06 bd3e b01b 08bf 066f cf3e 8dce d2be
00000050: 81fe ddbe 8864 f33e 8a3f 13bf 98c0 5a3f
00000060: f41d d23e 65d6 cc3e 180f 7d3e 58ab 0bbf
00000070: 71b4 98be a0d8 04bf d403 cb3e e059 b3be
00000080: ced7 ce3e 5f41 adbe a9d3 ac3e b5a6 b6be
00000090: 2fa9 aabe 91de b3be 0346 023f 1c98 be3e
000000a0: 6bfb b53e 7066 08bf 9086 e2be bedd c2be
000000b0: 06e2 2f3f 3287 e0be fb13 d5be 3f65 a9bf
000000c0: 5010 963e 29b1 dabe 9fcb f6be a549 ecbe
000000d0: bb9f ba3e b437 d13e 4cde d0be 4e7b b53e
000000e0: bad6 f73e e2a7 023f 23ab a93e bfc2 a03e
000000f0: 2021 703f e206 b7be e34e d0be 2b9f d63e

actor_mean.0.weight f4 [64, 73]
-0.076204285 0.017031463 -0.08653687 -0.1716553 -0.5177514 -0.14201891 -0.1228921 0.096905425
0.013719943 -0.31380215 0.025665108 -0.0911796 0.115173355 0.23632354 0.023236886 0.24715416
0.11434294 -0.16383146 0.07880822 0.12363029 -0.029335666 0.28486815 0.002179859 -0.1322335
0.1847101 -0.00846711 -0.20308378 0.14602366 -0.0047130305 -0.15436952 -0.040592995 0.030803075
0.012406272 0.08916939 -0.07023203 -0.05481953 -0.065043285 -0.026566599 0.04595799 -0.040214885
0.0041320156 0.102501474 -0.18115312 -0.09976794 0.032852314 0.005701272 0.021006355 -0.5053799
-0.20716201 -0.0351899 -0.13648802 -0.06752802 0.0650297 0.04003084 -0.15106378 -0.111591175
-0.034190107 0.042822663 0.014750415 -0.14498883 -0.4409509 -0.22686632 -0.039072633 0.06597159
0.005654155 -0.21741952 -0.051519677 -0.13862522 -0.072421536 -0.12390113 -0.34676042 0.8240903
-0.0006734106 -0.19902472 0.21074918 0.4057289 -0.7764758 0.117839865 0.06257119 0.3869159
0.1205969 -0.08886208 0.17798096 -0.07985799 -0.06235099 -0.06186981 0.05610342 -0.31643188
-0.00093066244 -0.010183745 -0.24639942 -0.08013125 -0.11002559 -0.1618539 -0.029190063 -0.04939459
0.021381188 -0.16957377 -0.13222963 -0.04157371 -0.07306138 -0.16265175 -0.06968488 -0.10900612
-0.033570636 -0.016585786 -0.11419626 0.007178865 -0.04617386 -0.07823642 -0.12073284 0.042914666
-0.04322649 -0.09211586 0.003537815 -0.07760974 -0.04994691 0.12387675 0.400821 -0.69324213
0.21444947 0.12788872 0.36566743 0.12912379 -0.08550901 0.2705365 0.010520812 0.16399476
0.02813095 -0.1088702 0.29327816 0.38186127 -0.69794977 0.30328324 0.019289657 0.55020344
0.041456383 -0.028446114 0.26360738 -0.046758488 -0.040071767 -0.101146124 -0.43608987 0.120183006
0.6684939 0.39623278 -0.08577964 0.07396635 0.16514565 0.057382006 0.14720744 0.42562664
0.04000921 -0.009120906 -0.069203585 0.023803523 -0.16627422 -0.07711453 -0.27650902 0.00042105716
0.12533078 -0.07438199 -0.072514385 0.1382221 -0.15270361 -0.03857066 0.20466027 -0.13935362
-0.14058822 0.044566702 -0.121368 -0.08829477 0.10084413 -0.061073393 -0.13326699 0.10565672
0.044163126 0.108633354 0.067647934 0.009311281 0.06451563 0.09028424 -0.023246031 -0.0024985287
0.05134584 0.09825139 -0.12690245 0.021204079 -0.026480133 -0.0745162 -0.17163122 0.12364618
0.03684557 -0.009932157 0.48769012 0.044180214 0.148591 -0.026937313 0.05903256 -0.04491114
-0.08946976 -0.1245643 -0.039473735 -0.13297023 0.07225548 0.055979043 0.036955323 0.5274329
0.112868294 0.19271335 -0.048532777 0.06880117 -0.1297417 0.017176213 -0.075683564 -0.2280863
-0.037805762 -1.3349059 -0.09045785 -0.14410403 -0.04677161 0.12053316 0.3882085 -0.34305117
0.093217894 -0.10097132 0.10143064 0.1340355 0.004302476 0.22587721 -0.18780583 -0.22799037
0.06849619 0.2507666 -0.14441043 0.051850468 0.12261541 -0.08475895 0.041960966 0.1791721
-0.082177214 0.080680564 0.037936136 -0.07704307 0.0715026 -0.0018775448 -0.089125976 0.066605486
0.046584677 -0.003618069 -0.03356513 -0.12052823 -0.033601873 -0.06235838 -0.16415256 -0.016861442
00000000: fe10 9cbd 9185 8b3c 3e3a b1bd 68c6 2fbe
00000010: 5b8b 04bf 686d 11be daae fbbd 5a76 c63d
00000020: 9dc9 603c adaa a0be a23f d23c 5fbc babd
00000030: 02e0 eb3d ccfe 713e 485b be3c fb15 7d3e
00000040: a22c ea3d 6fc3 27be 3466 a13d e131 fd3d
00000050: 5a51 f0bc 3dda 913e f7db 0e3b 3868 07be
00000060: a524 3d3e a2b9 0abc 32f5 4fbe 3a87 153e
00000070: c46f 9abb 0b13 1ebe d744 26bd bb56 fc3c
00000080: ad43 4b3c 719e b63d cfd5 8fbd 728a 60bd
00000090: 6a35 85bd 32a2 d9bc 723e 3c3d 5db8 24bd
000000a0: dc65 873b 4bec d13d 3480 39be 2253 ccbd
000000b0: 2690 063d bcd1 ba3b 8515 ac3c 9460 01bf
000000c0: 4722 54be 4923 10bd 84c3 0bbe 214c 8abd
000000d0: 4b2e 853d 61f7 233d 77b0 1abe ea89 e4bd
000000e0: ed0a 0cbd d166 2f3d baab 713c f477 14be
000000f0: 51c4 e1be a54f 68be a00a 20bd 1d1c 873d
00000100: 7d46 b93b 39a3 5ebe 4c06 53bd c5f3 0dbe
00000110: be51 94bd e0bf fdbd 958a b1be 95f7 523f
00000120: d287 30ba 23cd 4bbe a2ce 573e b3bb cf3e
00000130: 1ec7 46bf 0756 f13d 5325 803d d719 c63e
00000140: 82fb f63d 52fd b5bd a440 363e 968c a3bd
00000150: c063 7fbd 336b 7dbd b3cc 653d 5c03 a2be
00000160: b3f7 73ba b9d9 26bc 2150 7cbe da1b a4bd
00000170: 1955 e1bd 07bd 25be 0020 efbc fb51 4abd
00000180: 9a27 af3c bfa4 2dbe 3467 07be 3249 2abd
00000190: 34a1 95bd 2e8e 26be f2b6 8ebd 9a3e dfbd
000001a0: 5d81 09bd eade 87bc bbdf e9bd af3c eb3b
000001b0: cd20 3dbd 6b3a a0bd c742 f7bd 4ac7 2f3d
000001c0: 430e 31bd 3da7 bcbd b0da 673b dbf1 9ebd
000001d0: 2295 4cbd 18b3 fd3d 6938 cd3e 5178 31bf
000001e0: a498 5b3e 43f5 023e c338 bb3e 0739 043e
000001f0: 591f afbd c383 8a3e 7c5f 2c3c 3eee 273e
00000200: e172 e63c 57f7 debd 8e28 963e 5283 c33e
00000210: d6ac 32bf f147 9b3e 5805 9e3c 22da 0c3f
00000220: 2bce 293d d307 e9bc 8cf7 863e d485 3fbd
00000230: 4b22 24bd b325 cfbd 2c47 dfbe 8222 f63d
00000240: 6b22 2b3f 06df ca3e 3cad afbd ab7b 973d
00000250: f11b 293e 6509 6b3d 8cbd 163e bceb d93e
00000260: b3e0 233d da6f 15bc 9cba 8dbd 9bff c23c
00000270: ca43 2abe 39ee 9dbd 9792 8dbe 56c1 dc39
00000280: b656 003e 9655 98bd 6c82 94bd 188a 0d3e
00000290: 565e 1cbe 45fc 1dbd 7692 513e b7b2 0ebe
000002a0: 5cf6 0fbe 938b 363d c98f f8bd e3d3 b4bd
000002b0: 5e87 ce3d 1828 7abd 2477 08be 8d62 d83d
000002c0: 65e4 343d 2a7b de3d 008b 8a3d 588e 183c
000002d0: c520 843d f2e6 b83d 766e bebc 5bbe 23bb
000002e0: 0450 523d 0638 c93d b7f2 01be 2db4 ad3c
000002f0: ddec d8bc f39b 98bd 18c0 2fbe 353a fd3d
00000300: 61eb 163d 7cba 22bc 85b2 f93e 50f6 343d
00000310: 3d28 183e a4ab dcbc 20cc 713d bef4 37bd
00000320: ec3b b7bd 911b ffbd 36af 21bd 5929 08be
00000330: aefa 933d 484a 653d 775e 173d d805 073f
00000340: 7e27 e73d a656 453e 4eca 46bd a1e7 8c3d
00000350: 02db 04be 21b5 8c3c fcff 9abd 748f 69be
00000360: 37da 1abd 32de aabf f741 b9bd 0290 13be
00000370: 9693 3fbd 17da f63d 44c3 c63e 67a4 afbe
00000380: 06e9 be3d 0dca cebd deba cf3d 9a40 093e
00000390: c9fb 8c3b 5b4c 673e 2c50 40be 4f76 69be
000003a0: bb47 8c3d 7b64 803e 54e0 13be 2861 543d
000003b0: ca1d fb3d 1a96 adbd 43df 2b3d e478 373e
000003c0: 874c a8bd da3b a53d ec62 1b3d c2c8 9dbd
000003d0: f56f 923d f317 f6ba ae87 b6bd 7568 883d
000003e0: 93cf 3e3d 201d 6dbb 977b 09bd 81d7 f6bd
000003f0: 1ea2 09bd 806b 7fbd 9c17 28be 0221 8abc

actor_mean.0.bias f4 [64]
-0.044861708 0.43287405 0.0907108 -0.07641285 0.33507192 0.04826096 0.03288866 -0.11479073
-0.17085035 -0.118581645 -0.121554635 0.5928043 -0.05950813 -0.13930905 0.30194223 -0.10603606
-0.2210433 -0.059451863 -0.22854497 0.08344317 0.12066037 0.11895307 -0.117117085 -0.17277783
0.21321295 -0.2920762 0.08067572 -0.0166361 -0.053051975 -0.16873536 0.24638662 -0.08209617
-0.24176204 -0.15984218 -0.062384497 0.14861839 0.19697164 -0.24707536 -0.03431292 -0.05823425
-0.043592982 -0.16658282 0.049912915 0.0375961 0.26351658 -0.08330738 0.027861306 0.08621983
-0.079561345 0.14528091 -0.14678907 -0.26471958 0.32495224 -0.072013095 -0.009756195 -0.00451811
-0.119856 -0.118095174 0.00043985646 -0.1775971 0.22633877 -0.097331636 0.0042266957 0.085203774
00000000: e9c0 37bd aba1 dd3e 95c6 b93d 577e 9cbd
00000010: 8c8e ab3e 49ad 453d 42b6 063d 6717 ebbd
00000020: 65f3 2ebe efda f2bd a3f1 f8bd 06c2 173f
00000030: ccbe 73bd 08a7 0ebe 2c98 9a3e 6f29 d9bd
00000040: 2d59 62be cc83 73bd b107 6abe 41e4 aa3d
00000050: c91c f73d ab9d f33d 15db efbd acec 30be
00000060: 7f54 5a3e 038b 95be 5039 a53d 6e48 88bc
00000070: 074d 59bd f6c8 2cbe c64c 7c3e 0922 a8bd
00000080: 7890 77be abad 23be e386 7fbd 6b2f 183e
00000090: efb2 493e 5301 7dbe b48b 0cbd 0987 6ebd
000000a0: 8e8e 32bd b094 2abe 7c71 4c3d 5efe 193d
000000b0: a5eb 863e 0f9d aabd 653d e43c 0694 b03d
000000c0: 0ff1 a2bd 85c4 143e e04f 16be 5389 87be
000000d0: 2460 a63e 9a7b 93bd 73d8 1fbc a70c 94bb
000000e0: 1077 f5bd e2db f1bd 899c e639 04dc 35be
000000f0: 5ac5 673e cf55 c7bd 1880 8a3b 517f ae3d

actor_mean.2.weight f4 [64, 64]
0.02365909 0.119478285 0.10756999 0.18402854 0.017624626 -0.08366256 0.09794266 0.16375777
-0.041892115 -0.012448045 0.08972686 0.23364478 0.22039917 0.026218336 0.014134097 0.05686712
0.0950039 -0.347776 -0.17658116 -0.04523902 -0.01038999 0.016116088 0.100200795 0.030350296
-0.014487446 -0.030931998 -0.09797653 0.058769666 0.18326254 0.11650971 -0.011118856 0.07876844
-0.0919249 -0.04964097 -0.0120343985 0.18696854 -0.009621195 -0.116458125 -0.37648183 0.16515844
-0.09299971 0.09693912 -0.20886278 0.2310365 -0.063721575 0.15390752 0.1490556 0.20044015
-0.093101814 0.029727627 -0.2682999 0.047963485 -0.005541781 -0.06542288 0.005669014 0.2972477
-0.034938827 -0.086015955 0.035814255 0.03827407 -0.09376939 0.047071103 -0.44314653 0.045359474
0.10054074 0.032387093 -0.26997444 -0.044538453 -0.22841604 0.12764765 0.045099538 -0.18759254
-0.0026912517 -0.039724883 -0.10416862 -0.102838665 -0.007942312 -0.015179605 0.027377477 0.11148203
0.15993582 -0.0047091716 0.22372988 -0.15292042 -0.01026592 0.10872681 0.055454947 -0.08315153
-0.006625655 0.24566858 0.2668369 -0.11641967 -0.027743006 -0.02362439 0.08719232 -0.037168656
0.06475436 -0.09693092 -0.2267751 -0.15744922 -0.041867316 0.13674046 0.19960856 -0.052718967
0.10990339 0.19124787 -0.14132057 0.076778546 -0.07866194 0.08086311 -0.034002464 -0.3332454
0.06531226 0.005849834 0.25062257 0.20502327 0.15584597 0.15555413 0.09565893 -0.30983025
0.3372386 -0.082773924 0.119042076 -0.097883336 0.13739157 -0.03504641 0.0884441 0.036653593
0.054163504 0.10897775 -0.073984474 -0.05351469 0.010125118 -0.14001489 0.3124003 -0.15558489
0.0018445133 -0.29689184 -0.06898029 -0.016172364 -0.10670539 -0.070840225 0.10627808 -0.015134979
0.0038194174 -0.21125121 0.1573281 -0.20450333 -0.047574725 -0.08279903 0.10064402 0.017425163
-0.14337587 0.15119511 0.22835352 0.222667 0.13172819 0.19202387 0.0068535293 0.10466739
-0.15097469 0.043770358 0.07771751 -0.08284662 -0.08241018 0.24668996 -0.114261225 0.12297159
-0.039849754 0.05298965 -0.063428596 0.034892567 0.1037887 -0.007808603 -0.12129131 -0.32098845
0.08217373 -0.062257618 0.06036471 -0.0417859 -0.026217012 0.19554776 0.08939061 -0.11249604
-0.13410921 -0.11638426 0.007559094 0.0075207646 0.025769295 -0.045419414 -0.036747277 0.011425132
0.0010759307 -0.04922425 0.014021426 -0.071320795 -0.13184273 -0.073929906 -0.27648333 -0.08037453
-0.10129943 -0.10608088 -0.07578699 -0.23157987 0.08506214 0.07004083 -0.062008593 0.12590504
-0.1539472 -0.33236438 0.14618242 0.07390707 0.005063473 -0.19187999 -0.052952852 -0.010997439
0.07748035 0.017675566 0.04668432 0.33383384 0.051677138 0.105058774 -0.015706599 -0.13260601
0.10161975 -0.023647476 0.09094258 -0.21316983 -0.04305096 -0.05747888 0.31268778 -0.23607256
-0.15984054 -0.005898546 0.14596456 0.053069077 0.034851525 -0.008223768 0.07663859 -0.080357805
0.21516502 0.06457397 0.13686387 0.13790706 -0.12692332 0.01198672 0.17921613 0.021530995
0.015787948 0.1240867 -0.18239485 0.026489533 -0.010594368 0.060761634 0.014570926 -0.0021525023
00000000: b5d0 c13c 08b1 f43d a84d dc3d fa71 3c3e
00000010: 8561 903c 4757 abbd 2996 c83d 1eb0 273e
00000020: 1197 2bbd e3f2 4bbc b7c2 b73d 9440 6f3e
00000030: 52b0 613e d6c7 d63c b392 673c 7fed 683d
00000040: 6891 c23d b20f b2be b1d1 34be 8d4c 39bd
00000050: c73a 2abc e305 843c 1336 cd3d 2fa1 f83c
00000060: c15c 6dbc 1a65 fdbc eba7 c8bd 76b8 703d
00000070: 2da9 3b3e a59c ee3d dd2b 36bc 5951 a13d
00000080: 1f43 bcbd 5454 4bbd ed2b 45bc ae74 3f3e
00000090: 37a2 1dbc 9981 eebd 3ac2 c0be 4b1f 293e
000000a0: a276 bebd 0488 c63d 20e0 55be d594 6c3e
000000b0: 7580 82bd ef99 1d3e 08a2 183e 2f40 4d3e
000000c0: 2aac bebd 5a87 f33c 9b5e 89be 5c75 443d
000000d0: d497 b5bb 6efc 85bd 23c3 b93b da30 983e
000000e0: 041c 0fbd 2229 b0bd f8b1 123d 45c5 1c3d
000000f0: 2a0a c0bd a1cd 403d 1ae4 e2be dbca 393d
00000100: 4ee8 cd3d 54a8 043d 173a 8abe f46d 36bd
00000110: e5e5 69be 11b6 023e 4bba 383d 4218 40be
00000120: b65f 30bb 8fb6 22bd 5c56 d5bd 149d d2bd
00000130: 7920 02bc e1b3 78bc bb46 e03c b150 e43d
00000140: 37c6 233e 654f 9abb 7219 653e 2c97 1cbe
00000150: 6432 28bc 29ac de3d ba24 633d 594b aabd
00000160: 061c d9bb 8b90 7b3e d99e 883e 706d eebd
00000170: 4d45 e3bc f087 c1bc e391 b23d 293e 18bd
00000180: ef9d 843d b883 c6bd bb37 68be 5e3a 21be
00000190: 107d 2bbd b105 0c3e 3066 4c3e d8ef 57bd
000001a0: 0715 e13d 7bd6 433e 57b6 10be 123e 9d3d
000001b0: 8319 a1bd 8f9b a53d 2b46 0bbd 249f aabe
000001c0: 6fc2 853d f7af bf3b 9a51 803e 9ff1 513e
000001d0: 1696 1f3e 9549 1f3e d4e8 c33d 12a2 9ebe
000001e0: 8aaa ac3e 6085 a9bd 55cc f33d 0f77 c8bd
000001f0: 60b0 0c3e d38c 0fbd 2e22 b53d 1422 163d
00000200: 8dda 5d3d ba2f df3d 2c85 97bd 3832 5bbd
00000210: d3e3 253c 1060 0fbe eff2 9f3e a551 1fbe
00000220: 99c3 f13a 3502 98be 8a45 8dbd e87b 84bc
00000230: 5b88 dabd ae14 91bd 52a8 d93d b4f8 77bc
00000240: 314f 7a3b 3d52 58be 9e1a 213e 5269 51be
00000250: b7dd 42bd 8a92 a9bd 741e ce3d 37bf 8e3c
00000260: 20d1 12be e4d2 1a3e 81d5 693e d102 643e
00000270: c1e3 063e e8a1 443e 9293 e03b db5b d63d
00000280: 1c99 1abe 8c48 333d 5c2a 9f3d 7dab a9bd
00000290: abc6 a8bd 4b9c 7c3e ca01 eabd 87d8 fb3d
000002a0: 7f39 23bd ad0b 593d dae6 81bd 82eb 0e3d
000002b0: 2c8f d43d 4fdf ffbb 9467 f8bd 9958 a4be
000002c0: b34a a83d d801 7fbd fc40 773d b127 2bbd
000002d0: 0fc5 d6bc ac3d 483e 6d12 b73d 5364 e6bd
000002e0: ed53 09be df5a eebd 47b2 f73b bf70 f63b
000002f0: 211a d33c b509 3abd 5084 16bd 7a30 3b3c
00000300: 3e06 8d3a 5e9f 49bd 20ba 653c a310 92bd
00000310: c801 07be 9068 97bd 398f 8dbe 679b a4bd
00000320: 1376 cfbd ef40 d9bd 3636 9bbd 4623 6dbe
00000330: 0f35 ae3d 9171 8f3d b9fc 7dbd 40ed 003e
00000340: 56a4 1dbe aa2b aabe d8b0 153e 975c 973d
00000350: 7deb a53b 307c 44be 17e5 58bd 9a2e 34bc
00000360: 05ae 9e3d 59cc 903c 0f38 3f3d 45ec aa3e
00000370: 68ab 533d 0e29 d73d 20ab 80bc dfc9 07be
00000380: 041e d03d 5ab8 c1bc 1a40 ba3d 3149 5abe
00000390: 3456 30bd f96e 6bbd 9d18 a03e 01bd 71be
000003a0: 3dad 23be 9748 c1bb bc77 153e f65e 593d
000003b0: 79c0 0e3d fcbc 06bc b1f4 9c3d a292 a4bd
000003c0: 3854 5c3e 5c3f 843d 0b26 0c3e 8237 0d3e
000003d0: 30f8 01be f363 443c 6f84 373e c561 b03c
000003e0: ba55 813c 2b21 fe3d b7c5 3abe 9400 d93c
000003f0: 0094 2dbc 31e1 783d e5ba 6e3c ff10 0dbb

actor_mean.2.bias f4 [64]
0.048725184 -0.1310779 -0.011124779 -0.06678237 0.024238508 -0.25154483 -0.031318206 -0.016921377
0.02486864 -0.0015116233 -0.056261502 0.0938903 0.111274295 -0.06702519 -0.07872613 -0.30272427
-0.016121216 0.07127533 0.023553928 0.13400254 -0.19683485 0.016977912 -0.025838392 -0.00031345518
0.12115097 0.25225335 0.0040256614 -0.030317478 0.14857273 0.18481898 -0.0091810115 0.063597806
0.15874451 0.036655787 0.01665059 0.17646264 0.07065023 0.07247193 0.11601735 -0.08126026
0.078570254 0.012852742 -0.092166156 0.15356117 -0.20648669 -0.28495634 -0.045353618 0.0185556
-0.03716917 -0.13911727 0.121813305 0.16090156 0.0083843665 0.28187135 -0.05615998 0.04776668
0.05312676 0.11147818 -0.00016428286 -0.012873007 0.056677137 -0.0080174 -0.04840132 -0.016230298
00000000: 0f94 473d 4939 06be b444 36bc 32c5 88bd
00000010: d68f c63c 7cca 80be 8547 00bd b39e 8abc
00000020: 51b9 cb3c a921 c6ba 7672 66bd 8f49 c03d
00000030: c7e3 e33d 8144 89bd 2a3b a1bd adfe 9abe
00000040: a410 84bc cdf8 913d 2bf4 c03c f637 093e
00000050: 138f 49be 4315 8b3c 09ab d3bc 3e57 a4b9
00000060: 001e f83d 5a27 813e b2e9 833b 5c5c f8bc
00000070: 7323 183e 3041 3d3e f46b 16bc 913f 823d
00000080: ec8d 223e 6124 163d d166 883c 9fb2 343e
00000090: 11b1 903d 2a6c 943d 819a ed3d c76b a6bd
000000a0: 71e9 a03d 4f94 523c 9cc1 bcbd 243f 1d3e
000000b0: 3f71 53be cce5 91be b7c4 39bd ea01 983c
000000c0: b33e 18bd c274 0ebe 4179 f93d 61c3 243e
000000d0: 955e 093c 7151 903e 0208 66bd ffa6 433d
000000e0: 729b 593d ac4e e43d 5843 2cb9 4ee9 52bc
000000f0: 4926 683d 6a5b 03bc 7640 46bd 67f5 84bc

actor_mean.4.weight f4 [4, 64]
0.011972757 0.013202891 -0.05427197 -0.04301344 -0.007164061 -0.03004789 -0.08208706 -0.053924326
-0.012311396 -0.0074976487 -0.019372528 -0.020162681 -0.05268413 0.021396525 0.014222232 -0.062226627
0.0042461623 -0.021828327 -0.0035968826 0.06409445 0.08331351 -0.010942008 -0.04417606 0.0033388056
-0.057369046 -0.0091582965 0.0019524761 0.03225851 -0.01766913 -0.0473784 -0.033322614 0.027921818
-0.05782738 0.004579148 0.0061058663 0.007037533 -0.024792247 0.031042922 -0.09213985 0.010584999
-0.011618686 0.0041133375 -0.02042731 -0.028027304 -0.027079074 0.07898818 -0.01290972 0.013681934
-0.004441613 0.007233868 0.03137047 0.041266833 0.00840701 -0.0028302516 -0.010754188 -0.0030336566
-0.0104797855 -0.05137177 0.02556608 0.012750288 0.041001756 0.010580931 -0.037613276 0.0045720264
-0.008058835 0.0010737217 -0.006306376 0.021459663 0.023054902 0.078255214 -0.011393863 0.025230242
-0.00043851172 -0.007127734 -0.030926272 -0.015478754 -0.03024688 0.0036482404 0.008409062 -0.018459244
-0.0046853744 0.011736566 0.0022275487 0.0070274966 0.10311997 -0.0061747036 0.032339912 0.0058629066
0.022170052 0.01784339 -0.008922761 -0.033718135 -0.06662506 0.032021105 0.028971465 -0.035712395
0.007883853 -0.00475684 0.013340294 0.07856302 0.012466972 0.083267055 -0.057248373 -0.050241835
0.02187776 -0.002583601 -0.05877624 0.00029796554 0.0442554 -0.04230012 0.030454606 0.011225381
-0.0032238378 0.009138601 -0.11896815 0.10175163 0.000742262 -0.0019854214 -0.045015987 0.017647216
0.0029804131 0.08136829 -0.035325997 0.0038329633 -0.022217406 0.015078657 -0.058400404 0.014036992
-0.10583189 0.19236101 0.09065505 0.016820781 0.15505429 -0.026897445 -0.08318773 -0.10276087
0.03626964 -0.0075443685 0.09295054 -0.02942762 -0.03358573 -0.19416858 -0.019147485 -0.038927943
0.018775238 0.0025188804 0.005196326 0.08097102 -0.1369458 -0.0024547463 -0.21438403 -0.015606712
0.044494625 0.06912234 0.005434686 -0.13018197 -0.07155956 -0.07727284 0.050423592 0.12290705
-0.022986185 0.012832774 -0.17761327 -0.035710815 -0.15674153 -0.03373296 0.024406739 0.035163872
-0.034999486 -0.035651073 0.0707725 -0.023459062 0.11431674 -0.11778573 0.1560649 -0.042963002
0.015710048 0.012143434 0.025207972 0.08348961 0.0053689727 -0.053012587 -0.081212275 -0.0062859072
-0.048910595 0.058610823 0.033377986 0.049819097 -0.021521846 0.14789064 0.015745822 -0.010231425
0.1268553 -0.006562238 0.11554496 -0.04438223 -0.051829934 -0.21421297 -0.09549168 -0.073768675
0.007927862 0.018666523 -0.122140735 0.024180671 -0.014226649 -0.09432445 -0.040005926 -0.2578375
-0.053638328 -0.021018738 -0.0047376957 -0.020619577 -0.1974599 0.013006847 -0.12454274 0.007181015
0.22641587 0.05931222 0.0025402028 -0.07295354 0.10939558 0.13489573 -0.13571957 0.01724066
0.10924171 -0.026452353 -0.010044919 0.14181113 0.041578528 0.0048470665 -0.037782047 -0.078325965
-0.04624691 0.03890756 -0.046741035 0.0031071263 -0.10740348 -0.15708286 0.050417114 0.022670647
0.004109493 -0.32566556 0.04445765 -0.0035916164 -0.01383063 0.27635613 -0.04544744 0.02462053
0.0024256597 0.032665987 -0.020570632 -0.035571497 0.02909623 0.017359402 0.05737406 -0.037322126
00000000: 6229 443c f050 583c 494c 5ebd dc2e 30bd
00000010: 80c0 eabb fe26 f6bc 431d a8bd c1df 5cbd
00000020: bdb5 49bc d6ae f5bb 23b3 9ebc 352c a5bc
00000030: 50cb 57bd c447 af3c 5d04 693c 59e1 7ebd
00000040: 6423 8b3b 52d1 b2bc adb9 6bbb f343 833d
00000050: 46a0 aa3d 1c46 33bc f5f1 34bd ddcf 5a3b
00000060: cefb 6abd ae0c 16bc 3aea ff3a 8021 043d
00000070: dabe 90bc da0f 42bd 4b7d 08bd 4cbc e43c
00000080: 67dc 6cbd ad0c 963b b813 c83b 1b9b e63b
00000090: 1c19 cbbc ba4d fe3c d1b3 bcbd b46c 2d3c
000000a0: 4d5c 3ebc 2dc9 863b 2d57 a7bc 8499 e5bc
000000b0: efd4 ddbc 8ec4 a13d 4a83 53bc 312a 603c
000000c0: f38a 91bb 150a ed3b 527e 003d 6907 293d
000000d0: 8ebd 093c be7b 39bb 5532 30bc 50d0 46bb
000000e0: 68b3 2bbc 356b 52bd f56f d13c 95e6 503c
000000f0: 75f1 273d a45b 2d3c 6110 1abd f0d0 953b
00000100: 3409 04bc 1fbc 8c3a b7a5 cebb 2dcc af3c
00000110: a2dd bc3c 4544 a03d 53ad 3abc a7af ce3c
00000120: 0ce8 e5b9 c48f e9bb 1859 fdbc 9a9a 7dbc
00000130: 4ec8 f7bc 5117 6f3b 2ac6 093c d737 97bc
00000140: c587 99bb ba4a 403c 11fc 113b ea46 e63b
00000150: 9030 d33d 2b55 cabb db76 043d a01d c03b
00000160: f89d b53c 4d2c 923c c630 12bc 071c 0abd
00000170: b872 88bd 9028 033d 9155 ed3c 2947 12bd
00000180: 472b 013c 44df 9bbb 4091 5a3c a6e5 a03d
00000190: 4542 4c3c eb87 aa3d 457d 6abd 62ca 4dbd
000001a0: fd38 b33c a251 29bb 5bbf 70bd 4238 9c39
000001b0: 2645 353d e442 2dbd f07b f93c a9ea 373c
000001c0: 0647 53bb 12ba 153c 93a5 f3bd 2963 d03d
000001d0: 5c94 423a d81d 02bb af62 38bd e590 903c
000001e0: 0953 433b 6ba4 a63d feb1 10bd 7432 7b3b
000001f0: 4701 b6bc 790c 773c 4335 6fbd 69fb 653c
00000200: 64be d8bd 49fa 443e 5ba9 b93d bccb 893c
00000210: 8dc6 1e3e 0858 dcbc 545e aabd 4a74 d2bd
00000220: 798f 143d c036 f7bb da5c be3d 3112 f1bc
00000230: 3191 09bd 21d4 46be 30db 9cbc e872 1fbd
00000240: 87ce 993c cd13 253b f145 aa3b 22d4 a53d
00000250: 853b 0cbe cfdf 20bb 7d87 5bbe 4bb3 7fbc
00000260: ff3f 363d 0390 8d3d 7315 b23b 6c4e 05be
00000270: d28d 92bd 3941 9ebd f888 4e3d b1b6 fb3d
00000280: 864d bcbc 8e40 523c 41e0 35be 8145 12bd
00000290: da80 20be 922b 0abd a4f0 c73c fe07 103d
000002a0: 9f5b 0fbd dc06 12bd 2cf1 903d 382d c0bc
000002b0: e51e ea3d a539 f1bd 7acf 1f3e f9f9 2fbd
000002c0: 5cb2 803c 41f5 463c f380 ce3c 9afc aa3d
000002d0: 35ee af3b ba23 59bd 9f52 a6bd 03fa cdbb
000002e0: 7a56 48bd e711 703d 5bb7 083d 1c0f 4c3d
000002f0: 954e b0bc a570 173e 62fd 803c b5a1 27bc
00000300: 5be6 013e 0b08 d7bb d6a2 ec3d 24ca 35bd
00000310: a04b 54bd a55a 5bbe 2491 c3bd 0814 97bd
00000320: dde3 013c 89ea 983c ec24 fabd 8b16 c63c
00000330: e416 69bc 2d2d c1bd 41dd 23bd 4703 84be
00000340: ddb3 5bbd 7d2f acbc ac3e 9bbb 63ea a8bc
00000350: ee32 4abe ac1a 553c 4410 ffbd b84e eb3b
00000360: 90d9 673e 5ff1 723d 8879 263b aa68 95bd
00000370: ca0a e03d 1b22 0a3e 12fa 0abe 493c 8d3c
00000380: 1eba df3d 9bb2 d8bc 7293 24bc f036 113e
00000390: 3f4e 2a3d 24d4 9e3b 59c1 1abd 5d69 a0bd
000003a0: 666d 3dbd 895d 1f3d 8773 3fbd eea0 4b3b
000003b0: 5bf6 dbbd 54da 20be 2d82 4e3d cbb7 b93c
000003c0: eda8 863b a3bd a6be 3a19 363d 5361 6bbb
000003d0: de99 62bc 8d7e 8d3e 1827 3abd feb0 c93c
000003e0: d1f7 1e3b c5cc 053d be83 a8bc 6bb3 11bd
000003f0: 385b ee3c 4e35 8e3c 1001 6b3d 16df 18bd

actor_mean.4.bias f4 [4]
0.061608993 0.0018068828 0.028175902 0.24750094
00000000: b659 7c3d edd4 ec3a 26d1 e63c e370 7d3e
